models/best_model_fold_2.pt (torch, 864423 bytes, 14 tensors)

lstm.weight_ih_l0 f4 [512, 28]
00000000: 735a 9b2e 30fa 1339 c302 8bbd 38e1 1abd
00000010: df75 303c b553 babc 087d 7d3d b989 cd3c
00000020: c0db 493d 32b1 bebd 2d5f 11be a436 2cbd
00000030: 0a2f 75bc 66a5 b2bd ddee c4bc bf71 18bc
00000040: 20d1 e33a 859d a4bd 4644 91bd fa3e 95bc
00000050: d922 46bd 778a 69bd 032b 6fbd 63ea 29bd
00000060: 0d16 46bd f2d7 cfbb 25d6 a23c 153e cbb9
00000070: 0037 1fb2 ec3a 06bd 9a4b bfbc d9b6 80bd
00000080: 0f5f 3fbb cce3 dd3d cfe5 f83d 667c d93d
00000090: f22e e7bb 0095 833d b4cb e3bd 81d3 08ba
000000a0: 1676 13bd 60c4 28bd 9b33 f9bd dc23 0dbe
000000b0: faa8 83bd d86b 9dba a917 dcbb 06f9 3b3c
000000c0: ce21 83bb a77b 933c 8fb2 a5bd 3a26 c7bd
000000d0: 2fc8 12bd 6410 88bd 8417 11bd d6f9 a9b9
000000e0: db2f 34b6 7b99 41bd bbb0 0d3a b4ee 5dbd
000000f0: 1605 2cbe f7bf fcbd 7cdb acbb 63f7 c9bd
00000100: 9567 443b 79a4 a0bd 1969 513c e567 1a3d
00000110: ea9a 813d 271a 253e 0501 d03d 6427 03bd
00000120: 6a56 b7bc 5eae e43b 43f8 bb3d 9821 f6bc
00000130: 83f2 693d 1435 ee3b 3482 73bd 9f79 8f3c
00000140: 9be4 403d 3aa9 c73b 2687 2abd a824 bd38
00000150: 07c1 7838 6e73 86ba 690c be3c 731c 04bd
00000160: 1111 a7bd e603 ac3d 8cbf ab38 ed77 de3d
00000170: 0e99 eb3d 6f0f 8dbd 1ae7 b6bc f8bf 4abd
00000180: 1d0c c03d 97f6 a83d 883b 9fbc cab8 e9bc
00000190: b4d6 ea3d 6b76 103c 6c60 2b3a e0f7 243d
000001a0: 71ca 9f3b 6eca 013c bb78 acbd c8df 0dbe
000001b0: a281 d6bb 12bb 453d 47bb 103d d801 253b
000001c0: 8233 a8b4 4f1f 1d39 e84d ce3b 3cbe ba3c
000001d0: 48b2 3f3d d931 81bd 62fc 02be a71e 1ebe
000001e0: 0558 12be b0fb 88bd 2d72 36bd 0bb7 963b
000001f0: f84b 943d 4356 793d 30d5 2b3d bc7f 633c
00000200: 7c4b df3b abba 0abe bf1d 54bd a7bd ac3d
00000210: 390b 983d 24cb d5bc d8f3 88bd f122 76bd
00000220: 9fcf c6bd 99dc ff3c 9788 1d3c 788c e23b
00000230: b17d 8331 8c45 b23c 18e9 6d3d 368e cc3d
00000240: b37b b63d f411 2abd 1ae0 473d 6fbc 023e
00000250: 9c9f a03d 3d2a d9bc 6313 8b3d 6551 2b3d
00000260: 620c 75bc c625 11be c324 bebd 1712 73bd
00000270: 6990 603d bbd9 2d3d e0c2 afbd a3f5 9abd
00000280: d268 1c3d 032a f0bd fb85 2a3d a830 a5bd
00000290: 9494 3fbd 3131 82bd f2a4 ac3b f55d 03ba
000002a0: 5b07 1929 ff71 da38 0598 1abd b7bc b7bd
000002b0: 33ae 5ebd cf34 dc3d 8c4a d83d 3760 493c
000002c0: a086 36bb 1237 a1bd 9e7d 93bd 4070 fbbc
000002d0: e627 b8bd 614f 99bd 6443 89bd 94be bebd
000002e0: 8eb5 bebd c97c 25be d69d d3bd a52c bdbd
000002f0: 44fa 9ebd 81cd e6bc a429 b3bd e276 4e3d
00000300: 462f 01bd d689 4ebd d0d5 1b3b fbc4 b2bc
00000310: d897 8ebb 009a a1bb 7aa4 853c ed79 0ebc
00000320: 30a2 9cbd 149a 083d 9e1b 19bd c83b f4bc
00000330: 4e10 64bd 37dc 47bd 62c9 27bd 6fa0 dcbd
00000340: fd7b 01be d7a3 573d f60f 003e 34c3 a33d
00000350: 239e 5bbd 1f87 2dbc 99fc 73bd 14ac 56bc
00000360: ce1b acbb d8f5 293d 4486 f93d 1632 ee3a
00000370: 57bd 173c f974 fcbc c707 963c bfcd c93c
00000380: 2c77 86ba 63f8 97ba dc6b 753c c64b 153d
00000390: 070a c9bd 212d a3bd f76b c7bd 644d 38bd
000003a0: a715 bbbd 57cb 83bd 23f5 f1bc a6ed 2abe
000003b0: 0d3b 66bd 167e 31bd da9e bbbd 55db e2bc
000003c0: c2f6 553d b7a6 103d d67d d1bc 8f0b 773d
000003d0: b209 c0bc 297f a03b 933f 4fbd c218 21be
000003e0: 182b 20bd fae8 213d e565 093c 2580 08bb
000003f0: b2e7 6c18 b283 c937 da8a 71ba 7934 133d
7.064651e-11 0.00014112215 -0.06787636 -0.03781244 0.01077029 -0.022744993 0.061886817 0.025090085
0.049281836 -0.09311141 -0.14196463 -0.042044297 -0.014964828 -0.087229535 -0.02403968 -0.009304463
0.001738105 -0.08037857 -0.070931 -0.018218506 -0.048373077 -0.057016816 -0.05839063 -0.041483294
-0.048360873 -0.0063428814 0.019877503 -0.00038765432 -9.267524e-09 -0.032771036 -0.02335148 -0.062848754
-0.0029200946 0.108344644 0.121532075 0.1061943 -0.007055157 0.06424904 -0.11122838 -0.0005219505
-0.036001287 -0.041202903 -0.12168046 -0.1378321 -0.06428714 -0.0012010289 -0.0067166877 0.011472946
-0.0040018326 0.018003298 -0.08090698 -0.09724088 -0.03583544 -0.06643751 -0.035422817 -0.00032420334
-2.6849946e-06 -0.04726551 0.0005405058 -0.054182723 -0.16798815 -0.12341302 -0.005275188 -0.098616384
0.0029968966 -0.07843871 0.012781405 0.037696738 0.06328376 0.16123258 0.101564445 -0.032019988
-0.022380073 0.006978794 0.091782115 -0.030045316 0.057116043 0.007269511 -0.059450343 0.017514048
0.047093015 0.0060931714 -0.041632794 9.01905e-05 5.930758e-05 -0.0010257789 0.023199277 -0.032253694
-0.08157552 0.08399181 8.189594e-05 0.10862718 0.11503802 -0.06887709 -0.022326995 -0.049499482
0.093773104 0.08250158 -0.019437566 -0.028530497 0.114667326 0.008817296 0.00065375003 0.040275455
0.004876428 0.007921798 -0.08421465 -0.13854897 -0.006546215 0.048274107 0.03533485 0.00251781
-3.1329915e-07 0.0001498435 0.0062959082 0.022795789 0.04680088 -0.06308336 -0.12791589 -0.1544138
-0.1429139 -0.066886306 -0.04454248 0.004599457 0.072410524 0.06087328 0.04195136 0.013885435
0.0068144184 -0.1354777 -0.05178618 0.08434611 0.074240156 -0.026097842 -0.066871345 -0.060091916
-0.09707569 0.031233119 0.009615085 0.006913718 3.8268912e-09 0.021761678 0.058083624 0.09988062
0.089103125 -0.041521028 0.048797704 0.12767194 0.07842943 -0.026509399 0.06790807 0.04182567
-0.014956566 -0.14174566 -0.092843555 -0.059343424 0.05482522 0.042443972 -0.08582091 -0.07566383
0.038185902 -0.11726763 0.04163168 -0.08065921 -0.046772555 -0.06357039 0.0052686865 -0.0005011254
3.3979204e-14 0.000104162835 -0.037742633 -0.089715414 -0.054365348 0.1075226 0.10561094 0.012291006
-0.002785124 -0.07871832 -0.07201694 -0.030693173 -0.08991985 -0.074858434 -0.06702307 -0.09313694
-0.093119726 -0.16160883 -0.10332839 -0.09237031 -0.07762578 -0.028174164 -0.08748177 0.050406344
-0.031539224 -0.05042442 0.0023778565 -0.021822443 -0.0043515973 -0.0049316883 0.01631378 -0.008696062
-0.07648122 0.033350065 -0.037379853 -0.029813662 -0.05567961 -0.048793998 -0.040963538 -0.10772788
-0.12644954 0.052646484 0.12506089 0.079962164 -0.053617608 -0.010591297 -0.059567068 -0.01310255
-0.005252338 0.04149422 0.12183812 0.0018172886 0.009261451 -0.030817496 0.018314255 0.02463424
-0.0010258905 -0.0011594411 0.014979329 0.036449216 -0.09816366 -0.07967592 -0.097373895 -0.04499568
-0.09134989 -0.06435268 -0.029535836 -0.16692218 -0.05620866 -0.043333136 -0.09161158 -0.027692476
0.05223728 0.03531524 -0.025572699 0.060313758 -0.023442123 0.004897971 -0.05059774 -0.157321
-0.039103597 0.039528824 0.00838611 -0.0020828333 3.0619261e-24 2.4022393e-05 -0.0009214111 0.035938714

lstm.weight_hh_l0 f4 [512, 128]
00000000: df60 073d 5f56 293c fa73 bdbb 513b 743c
00000010: 5b16 17bc 5c4e 8abc f7ae 2fba 3dea ad3c
00000020: ef47 19bc 1e5f 08bb 38ba be3b 3a24 bcb9
00000030: e21a 80bd 7e1c aab7 1955 b9bb 5b74 253c
00000040: b71f c63c 6f4b 2abc 2ee6 923c 7316 ee3c
00000050: 24c9 ae3c 1ec7 723c df67 0cbd 1ee9 86bc
00000060: 4447 a63c cd00 e23c 8698 0c3d ccd2 a6bc
00000070: f633 193c d9ae 88bc 1079 27bd 56b4 59bb
00000080: 9f14 7ebc 780e 453c 898b 143c d32d 133c
00000090: 42ef 543b a2f5 a139 beb0 823b 62e3 123c
000000a0: ee18 003c bf28 233c 5db5 6a3c fc8f 843c
000000b0: 4f7f c5bc 0765 bf3a c9c2 dfbb 0b12 763c
000000c0: 4f62 123b 8396 f53c efe4 94bc 1040 9b3c
000000d0: 92eb c83b dd35 963c d686 543c 22e6 ef3b
000000e0: 18b5 c73c 3a69 bbbc 180f b039 7fe5 d4ba
000000f0: 365e 10bb cfbd 5c3c bdb8 9bbc ae32 0f3c
00000100: 88ed 493b 14de 0c3c ec4d 88bc e2fa 8d3c
00000110: 9876 09bc f606 153c 22e0 863c 600d c8bb
00000120: b363 5a3c fd55 c6bc e207 2fbc 99f6 1fbd
00000130: 9dc6 68bb b57f dfbc 2bc3 9b3b e739 813a
00000140: 7785 9abc d99c 37bb d364 d8bc e396 97bc
00000150: 95ef efbc d22d 8c3c efa0 a4bc 5367 8ebc
00000160: 00b4 b338 a5a8 cd3c b71e dcbc f56f 093d
00000170: 1e5d 2c3b 91b4 aebc 6824 f7bc 45ec 23bc
00000180: 4016 7e3c 5842 8f3b 7ef7 15bc d44a feba
00000190: 2a52 a43b b34b b9bc e51a 993c fcb1 2cbc
000001a0: 9b16 8abb 755f 9abc c051 8f3c 51a5 753c
000001b0: 9ca0 5a3c 90e2 a739 5841 1f38 0037 04bd
000001c0: c6f9 75ba 7351 a73b 13c4 e3bb 50a6 4b3c
000001d0: aeec 08bc eee7 a33b 6777 c6bc affb 87bc
000001e0: f6b1 1a3d fbc6 abbb 8711 903c 5b88 b63c
000001f0: 1317 e1bb 94aa f3bc 2638 e43c e998 00ba
00000200: 5a64 f03b ab54 e4bb 2b84 80bb 0481 33bc
00000210: a602 ecbc 7163 b1bb e937 22bd 947e afbb
00000220: b841 4dbc 6a3f 6bbc 3013 d63b 1311 9abc
00000230: 8305 07bc e4e4 a9bc 28b5 833b ca49 9b3c
00000240: 6ab8 0fbd ab06 413c 7cf4 8d3c 278d f33c
00000250: 1c8c 383b 5b5e b4ba ca89 93bc 78a5 3b3c
00000260: be2a 26bc a071 1e3c 9808 b93b 80d8 c2bb
00000270: 2e37 213d da7a 493c 622c 533b 2673 6cbb
00000280: ca67 65bb 294e 653c 2dda dc3c ba00 82bb
00000290: 1280 093d 2359 94bc 1c67 e3bb da2e a4b8
000002a0: af45 043b 84f0 9a3c 524a 073c 49ac 113d
000002b0: 2506 95bc 6eb7 c73b 53f3 54bc af00 8a3c
000002c0: 6952 013d 4803 33bb 461f 85bc eb76 d3bb
000002d0: 7cc9 b13b 2f88 5bbd bea7 853c d67c baba
000002e0: fdc0 c23c 6355 aabc 6c70 debc c0c3 b03c
000002f0: 5b40 bfbc efb0 44bd 9219 613c 3b90 30bc
00000300: ecf7 7b3c c318 f93c 7051 9fbc 8484 9eba
00000310: 8ee5 2abb 4bea f9bb 97a5 5f3c 79cf 893b
00000320: a9a4 a33c 71c2 95ba f55d aa3b 67e6 b4bb
00000330: 5955 3b3c 9a87 103c be02 aebb 5db3 233a
00000340: 2fc7 d9bb c073 08bd 0cdb 93bc aa8e e1bc
00000350: 8223 92bb 7e0e 983c 546e c2bc 5d73 a73c
00000360: b034 063d e413 c73b 203b 3fbb 40ce 03bb
00000370: 0e4b 9dbb febf f53b c82c 3e3c d0bb 7cba
00000380: 61ab abbb 7e8b 563c f632 6fba 3271 ddbb
00000390: fcf4 ef3b 2767 5d3c ecab c1bb d08e 80bc
000003a0: 1587 0a3c 7af7 eb3a c2b3 aebb dd16 50bb
000003b0: a331 043a b482 cebc 2967 273c 5af4 5ebc
000003c0: 4910 1d3b dda7 67bc 46f2 85bc e6fb 5b3c
000003d0: d42e bbbb bda9 52bb e16a 22ba f2df 85bb
000003e0: 3f77 c53c 7b22 c2bc 13f9 833c b11c 5b3d
000003f0: c4fd 863b abf1 61bb f060 38ba 0cae 20bc
0.033051368 0.010335534 -0.0057816477 0.01490672 -0.009221639 -0.016883068 -0.0006701792 0.021229858
-0.009355529 -0.0020808647 0.005820539 -0.00035885145 -0.062551275 -2.0278847e-05 -0.0056558964 0.010098542
0.024185045 -0.010393961 0.017932024 0.029063439 0.021336146 0.014817981 -0.034278747 -0.01646858
0.020297654 0.027588272 0.034325145 -0.020364188 0.009350767 -0.016684936 -0.04088694 -0.003321906
-0.015507846 0.012027375 0.009066471 0.008983093 0.0032491242 0.00030891324 0.0039883545 0.008965345
0.007818444 0.009958445 0.014325467 0.016181938 -0.024108557 0.0014602252 -0.00682864 0.01501895
0.0022336429 0.029978996 -0.01817557 0.018951446 0.006131598 0.01833623 0.0129716005 0.007321135
0.024378344 -0.022877324 0.00033580582 -0.0016242712 -0.002202881 0.013472988 -0.019008989 0.00874011
0.0030811746 0.008597869 -0.016638719 0.017331544 -0.008390091 0.009095898 0.016464297 -0.00610511
0.013329434 -0.024210924 -0.010683032 -0.039053533 -0.0035518773 -0.027282575 0.0047534904 0.0009859175
-0.01886247 -0.0028017072 -0.026415264 -0.018504566 -0.029289046 0.017111693 -0.02009627 -0.017383253
8.568913e-05 0.02510483 -0.026870115 0.033554036 0.002630062 -0.021326335 -0.030168727 -0.0100050615
0.0155082345 0.0043719225 -0.009153245 -0.0019400963 0.0050146775 -0.022619104 0.018689582 -0.010540482
-0.0042141206 -0.018844346 0.017495036 0.014993028 0.013343956 0.00032021524 3.796941e-05 -0.032279015
-0.00093832274 0.005106145 -0.006950864 0.012429789 -0.00835721 0.0050020134 -0.024226857 -0.016599504
0.037767373 -0.005242226 0.017586483 0.022281816 -0.0068692057 -0.029744424 0.027858805 -0.0004905598
0.0073361816 -0.006968101 -0.0039220056 -0.010956053 -0.028809857 -0.0054134657 -0.0396041 -0.0053556655
-0.012527876 -0.014358381 0.006533049 -0.01880697 -0.00824106 -0.020739026 0.0040193982 0.018956084
-0.03508798 0.011781375 0.017328493 0.029730393 0.0028159684 -0.001376103 -0.018010039 0.011453025
-0.0101420265 0.009670645 0.0056467764 -0.005946219 0.039359264 0.0122973565 0.00322225 -0.0036079376
-0.003500449 0.013995686 0.026959503 -0.003967372 0.033569403 -0.01810891 -0.006939782 -7.828856e-05
0.0020183136 0.018913515 0.008257465 0.035564695 -0.018191407 0.0060948646 -0.012997466 0.01684603
0.031572733 -0.0027315188 -0.016250264 -0.006453385 0.00542563 -0.05359667 0.016315337 -0.0014227878
0.023773665 -0.020792669 -0.027153216 0.021577716 -0.023346117 -0.0480203 0.013739007 -0.010776575
0.015378933 0.030407315 -0.019448012 -0.0012093936 -0.0026076767 -0.007626807 0.01365032 0.004205641
0.019975977 -0.0011425746 0.005199189 -0.00552063 0.011433923 0.008821392 -0.0053103855 0.0006244684
-0.006646059 -0.033313513 -0.018048786 -0.027533848 -0.0044597993 0.018561598 -0.02373425 0.020440752
0.03276509 0.006075369 -0.0029179528 -0.0020111948 -0.004800207 0.007499694 0.011607356 -0.00096410234
-0.005238936 0.013094781 -0.000912472 -0.0067578787 0.0073229056 0.013513363 -0.0059103873 -0.015693098
0.008455058 0.0018002831 -0.0053314874 -0.0031751909 0.0005042797 -0.025208808 0.010217466 -0.013608063
0.0023966006 -0.014139143 -0.016350877 0.0134267565 -0.0057123695 -0.003214463 -0.0006195736 -0.0040855343
0.024104713 -0.023698082 0.016109979 0.05349416 0.0041196067 -0.003447632 -0.0007033488 -0.009807121

lstm.bias_ih_l0 f4 [512]
00000000: 7ddc 0d3e a80c c63b 05b0 1c3e 1bea 07bc
00000010: e063 9e3d ae3f b83d b3cf 403e fbbe 283d
00000020: 1ceb 5f3d e29b e63c b432 a1bc c757 1f3d
00000030: 02de 803e a88d 703c bc8e a93c 32f3 ef3c
00000040: eaee 7bbc 2814 c0bb 495b 663b 6696 93bc
00000050: ed67 0f3e 6800 d7bb 5dc2 a53d 75bf 3b3d
00000060: 2760 ce3d 3144 093d 2dfc 0d3d e365 f53d
00000070: f039 813d 8642 1f3d 2179 dc3d 1eaf 0abc
00000080: 62cf 7a3d c945 e83c 0e72 e03c 0d96 1e3d
00000090: 2f1c db3c 175d fd39 724c 22bc 1b50 3a3d
000000a0: c3f9 313d 9acf 533d 5b7c a53d 8997 f73c
000000b0: 663d e53c 730f af3d 3825 ed3d 1822 c0bb
000000c0: f97a 55bd bb69 143d 8dfe 68bc 5335 f03d
000000d0: 54aa fc3b 8ed6 8a3d b18e 073d 5c51 c63d
000000e0: 5017 723d 9663 4f3d 9b2c 723d 4ba9 003d
000000f0: 79a1 cd3b 4b8d 5d3d 4482 ba3c 6b48 a4bc
00000100: 8d3c cd3c 9cb0 e9bb bd23 943c a365 5c3d
00000110: 6412 f23c 6c6f b43d cd83 31bc e5a5 903c
00000120: c20b 433d 05e4 5b3c a932 403b 1d71 c83d
00000130: 7a0c 663d 2f89 e53d 90ef bfbb 8a5d 2f3d
00000140: 6cf6 1c3d 9765 0cba 7b4f 373d 1b92 943d
00000150: 111a dc3c 2f9e ad3d da30 c33d bb37 0f3d
00000160: c657 233c 5b9b 253d fae2 393c 0c71 a23d
00000170: ef87 243c 94c8 c83c e1f7 063e f5b1 203d
00000180: 08fd 91bc 7627 40bd 70e9 0b3e e0bb 98bc
00000190: f3e3 453d 6e3d 823d 55db dc3c 8669 773d
000001a0: 99f9 ad3c b734 b23d fed1 a03d 30bf 4e3d
000001b0: dcd4 8db8 563c b73d 5b75 0f3d b843 8b3d
000001c0: 8c1a 63bb 41ab 3f3d b5de 783c ad33 f33d
000001d0: 6b6a 173d 60a3 883c 85f8 803d abef 283c
000001e0: 665c f23d 1adb 883d 7668 783d c573 97bc
000001f0: 634e 1bbc 5e15 113e d85b 843d 8bfe 8c3c
00000200: 7fb5 7b3d 07bf 8f3c 7ffa 353d 5641 3cbd
00000210: 663b abba c54c eebc ff44 813e 6310 a13c
00000220: 7ae1 78bd c521 f13b f91a 40bc f9e4 8fbc
00000230: 06d9 2d3e 05ee 07bd a3c2 203d cf88 203b
00000240: e2a6 e9bc 6e4e 28bd 67ad 9bba 6cd0 8f3c
00000250: 4f83 933c 7f04 91bc aff8 e7bc 46e3 5e3d
00000260: 8cb1 bdbc cc81 cbbc 0f76 373d 5de6 9f3d
00000270: b560 ad3c d552 603c ab64 0ebd 0afc 553d
00000280: 5102 5c3c e77f cb3d 1e9a b53c 694e 37bd
00000290: 0c7b 4d3d df9b 00bc 7cd5 8e3a f53e 403c
000002a0: 0bda c33a 9a8c c2bc 92c4 b8bc f178 bf3c
000002b0: b8cb 053d 9107 8e3d c03d 8b3c 106a 2bbd
000002c0: 30cd ba3b 814c b33d 5852 5ebc f12e d83d
000002d0: 8d79 c83c e351 9b3d 721c b4bc 80a2 8838
000002e0: 82df 473d 5d3c 3e3d 2204 d23c a769 c1bc
000002f0: 6fc9 93bd 8d3f 8abd 612e c13c 2d99 45bd
00000300: 1e04 1ebc b083 a73b b69c 7e3d ea09 113d
00000310: 5a8f d0ba 5c32 9fbc 63c2 973c 967e 413d
00000320: 26df babb 1382 0d3d a66e 45bc 4fcf 463d
00000330: e46e f53c 654f b83c e7b7 bcbd edf1 9b3c
00000340: 93b9 0c3c 62f6 84bc 5887 273c adff 8d3c
00000350: 483a febc 7a52 32bd 6ca3 d93d 16b3 efbc
00000360: 9f94 753d 48ca b93c e17f 31bd 9f7b 693c
00000370: 98fc bfbc e0e6 823d c8f4 823d 3190 f9bb
00000380: 081c 0ebd af32 0fb9 375c adbc 19e9 863a
00000390: a240 7b3d 7b7d 3f3b c2b5 063d dbcb cb3c
000003a0: 4cb8 033d bfbf a33d fc92 af3d 1a0e 2dbd
000003b0: 7190 25bd 6eb0 c2bd 27c9 f3bc c788 d33d
000003c0: 793e 783d 76d4 c93d c98c 9bbd 66e8 203d
000003d0: 0b98 2fbc 2069 1dbc 682e 043d 907f 48bd
000003e0: dbc6 d63c 1aa9 fb3d 7e2b b83b 8572 bb3b
000003f0: 922b 1f3c 9340 2e3d 2d4c 83bd 9731 e73c
0.13853641 0.006043989 0.15301521 -0.008295561 0.077338934 0.08996521 0.18829231 0.04119776
0.054667577 0.028150503 -0.019677497 0.03890207 0.2516938 0.014682211 0.020697944 0.02929077
-0.015376786 -0.005861778 0.0035149625 -0.018016052 0.14004488 -0.0065613277 0.080937125 0.045836885
0.10076933 0.033512298 0.03466432 0.11982324 0.06309879 0.0388818 0.10765291 -0.008464603
0.061232932 0.028353589 0.027398136 0.03871732 0.026746837 0.00048325278 -0.009905921 0.04548655
0.043451082 0.051711656 0.080803595 0.030223625 0.027983379 0.085478686 0.115793645 -0.0058634393
-0.05211923 0.036233645 -0.014220846 0.11728921 0.0077107344 0.06779204 0.033095066 0.09683487
0.059104264 0.050632082 0.05912457 0.03141145 0.0062753526 0.054089826 0.022767194 -0.020054063
0.025053287 -0.007131649 0.018083448 0.053807866 0.029549785 0.088103145 -0.010834646 0.01765723
0.047618635 0.013421063 0.002932707 0.097872 0.056164242 0.11207806 -0.0058574155 0.042813815
0.038320944 -0.0005355714 0.044753533 0.0725443 0.026867898 0.08477437 0.09530802 0.034965258
0.009969657 0.04043136 0.011345619 0.07931718 0.010042175 0.024509706 0.13180496 0.039232213
-0.01782085 -0.046912633 0.13663268 -0.018644273 0.048313092 0.06359373 0.026960054 0.06040337
0.021237181 0.08701461 0.07852553 0.0504753 -6.763052e-05 0.08947055 0.03502403 0.06800026
-0.0034653274 0.04679418 0.015189816 0.11875091 0.036966722 0.016679466 0.06297401 0.010311048
0.1183403 0.06682415 0.060646497 -0.01848782 -0.009479138 0.14168307 0.0646283 0.01721122
0.061452385 0.017547144 0.044428345 -0.045960747 -0.0013063967 -0.029089341 0.25247952 0.019661134
-0.060761906 0.007358762 -0.011725181 -0.017565237 0.16977319 -0.033185977 0.03924812 0.0024495607
-0.028521959 -0.04109042 -0.001187724 0.017555438 0.018006949 -0.01770234 -0.028316824 0.054415964
-0.02315595 -0.024842165 0.044790324 0.0780761 0.021164278 0.013691624 -0.034763973 0.052242316
0.013428287 0.09936505 0.022168215 -0.044752512 0.050166175 -0.007849663 0.0010897364 0.01173376
0.0014942301 -0.023748685 -0.02255467 0.023373099 0.032664984 0.06935037 0.016997218 -0.041849196
0.00570073 0.08754826 -0.013569437 0.10555828 0.024472022 0.07583978 -0.02198622 6.515253e-05
0.048797138 0.046444286 0.025636736 -0.02360995 -0.07216155 -0.067504026 0.023581685 -0.048241783
-0.009644536 0.005112134 0.06216117 0.035409845 -0.0015911863 -0.019433193 0.018525308 0.047239862
-0.005702871 0.034547877 -0.012050306 0.04853755 0.029960103 0.022498796 -0.09214764 0.019036258
0.008589166 -0.016230766 0.01022514 0.01733383 -0.03103365 -0.043535687 0.106268734 -0.0292602
0.05995619 0.022679463 -0.043334845 0.014250665 -0.023435876 0.06391692 0.063943446 -0.007616066
-0.0346947 -0.00013656424 -0.021162136 0.0010292857 0.061340936 0.002921908 0.03288818 0.02487748
0.03215818 0.07995557 0.08572957 -0.042249776 -0.040420953 -0.095063075 -0.029759003 0.103288226
0.060606454 0.09854977 -0.07595212 0.039284132 -0.010717402 -0.009607583 0.03227082 -0.048949778
0.026217869 0.12288113 0.005620419 0.005720439 0.009714978 0.04254205 -0.06411014 0.028221888

lstm.bias_hh_l0 f4 [512]
00000000: 7d6d fd3d aeb5 653b f0be 093e e702 45bb
00000010: 5422 9e3d a4ce bc3d 799f 3c3e 4ff8 5f3c
00000020: 6ae0 503d e6e8 e83c b1f1 97bc 7d45 203d
00000030: c61f 6c3e 7e3e 733c daf3 e03c 7e3a d33c
00000040: d86a 8ebc bc81 c0bb 2b4c 513b 24c8 69bc
00000050: 20bc 1c3e 4f3f 62bb 8c82 ae3d aef5 393d
00000060: 25a2 d13d d52f 0c3d ecbc 193d 93a1 e63d
00000070: 4b3a 813d 2a2c 243d 0f02 c23d 9986 2dbc
00000080: 7f9f 4f3d a31f cc3c 7750 e03c d97a 133d
00000090: 4506 d53c b4e7 b739 7e66 d8bb c630 3e3d
000000a0: bc4c 413d 824e 423d 29f9 af3d d09c f43c
000000b0: 4113 eb3c 7b12 b13d bda3 e23d 6019 d6bb
000000c0: 99a2 54bd 48f4 9d3c 4450 6abc 75ed d63d
000000d0: ff37 fb3b 0801 883d 7258 093d b3e3 b23d
000000e0: 87e7 763d 1db3 563d dbb9 6a3d d36e 023d
000000f0: c2e0 d13b 756c 633d 1cff b43c 7892 afbc
00000100: 4593 c73c d008 1fbc 576f 573c fbc4 7c3d
00000110: bc5e e93c 90dc b03d 38b0 8abc 732f 453c
00000120: 3dc1 4b3d e2d4 553c 2972 213b 3107 c83d
00000130: 0496 673d 1716 dc3d b056 c1bb b5a4 2e3d
00000140: c149 263d 96f3 a2b7 424b 0a3d 1c1b 973d
00000150: 986a fa3c 21bd a53d 285a d13d 4c43 3f3d
00000160: 11fa a33b 71f4 2e3d 2e8a 863c 2ebc 833d
00000170: b582 073c 70ca cb3c 8b92 0c3e c99c 193d
00000180: 9eea 81bc 95aa 69bd 775f 213e 0002 42bd
00000190: a931 563d 6bde 7e3d 37f5 f13c 6153 7c3d
000001a0: cba6 9c3c 7202 dd3d 619e 9d3d 6556 463d
000001b0: ec0f 3a3a d29f b83d ce76 073d 07f0 883d
000001c0: 7c14 8ebb adc6 293d 30dc 733c 4191 f63d
000001d0: 049e 183d 3b31 873c 2b0a 8b3d b342 693c
000001e0: 4a64 e33d 6b5f 903d 9829 773d 3c58 95bc
000001f0: 7fc9 2bbc 36fc 0e3e 030a 783d 69f9 6c3c
00000200: 0153 833d de51 543a f4c9 c03c eaa9 15bd
00000210: 7a69 94bc c560 85bd 1573 803e 5e8d 673c
00000220: 17cb 5dbd 59ef 4f3d 8718 6bbb 9182 85bc
00000230: e938 463e 484b 0fbd e322 ad3c dfe1 2f3d
00000240: 0452 75bc 7ddb afbc 4faf c53b 5eaf ac3c
00000250: d7db b13c f25c 95bc 0ea7 e2bc 9274 553d
00000260: f6fd acbc 4b5c b2bc 9572 883d d114 a83d
00000270: 1641 8d3b 46e9 5a3b f556 4dbd f928 0b3d
00000280: 98dd 0c3d 7b8c bd3d fef5 af3c 606a 52bd
00000290: 8f11 443d 6e65 c2bb 7bc3 543b 462f 1e3c
000002a0: 99ef eb3a 8ff6 3e3b aad2 2b3a 891c db3c
000002b0: 0008 063d 56da 8e3d 7907 083d d9fa a4bc
000002c0: 4ae3 e23b c73f 803d ca86 64bb fdaf 953d
000002d0: d258 833c 795e 2f3d 9ff5 a1bc 012b cabc
000002e0: 9193 5b3b 0cb5 d63c e30a 0d3d 94ab 1fbd
000002f0: 15d9 a3bd 238c 34bd 3cf1 c93c c90d 40bd
00000300: fe08 b0bb 8b14 02bc 98bf 933d ab61 1c3d
00000310: 82a5 89bb d48b c2bb f075 573b c513 fa3c
00000320: 3378 913c 540c 233d e304 53bc 63f7 1f3d
00000330: 4b9c ef3c 7adf 4c3d 2f1d b1bd a0f8 f03c
00000340: 68b2 0d3d cd18 aebc 892c 7e3d 9cd5 8c3c
00000350: b119 1a3c 9524 46bd fc62 cd3d cd83 11bd
00000360: be45 c23d aaf6 ec3c 47a8 02bd e488 db3c
00000370: ecb1 0bbd 9534 813d 80eb 5b3d da33 71bc
00000380: 0d16 2bbd c41e 523d 7ad0 3fbd ec8d 9dbc
00000390: b680 f53c 02dc 01bc b1ff e13c 6317 493d
000003a0: 1d13 403d 77e7 af3d b85c a23d e48f 23bd
000003b0: bde7 2abd 918e b0bd d907 d9bc 2f11 433d
000003c0: 4fd4 d13c 1946 fc3d 4a2d 37bd 3545 263c
000003d0: 0c9e 063d 3026 48bc 87f4 9f3c 79a7 6fbd
000003e0: 366d 673d f08a f13d 3d94 1d3b bbfc be3c
000003f0: ca5a 093d 05f1 de3c 7105 99bd b102 053d
0.12374399 0.0035050916 0.13451743 -0.0030061544 0.07721391 0.09219101 0.18420209 0.013670041
0.050995268 0.028431367 -0.018547865 0.03912877 0.23058996 0.014846442 0.027460027 0.025784727
-0.017384931 -0.0058748405 0.0031936269 -0.014268909 0.15306139 -0.0034522598 0.085209936 0.045400314
0.10236005 0.034225304 0.037533686 0.112612866 0.063099466 0.04008118 0.09473049 -0.010591173
0.050689217 0.02491743 0.027382119 0.03600583 0.026003966 0.00035077112 -0.006604015 0.046433233
0.04719232 0.047438152 0.085924454 0.02985993 0.028695704 0.08646103 0.11066387 -0.0065337867
-0.051912878 0.019281521 -0.014301363 0.1049451 0.0076665874 0.06640822 0.033531614 0.087348364
0.060279395 0.05241691 0.05730615 0.03184397 0.006404967 0.055523355 0.022094302 -0.021432146
0.024362216 -0.009706691 0.013149104 0.061711293 0.028487556 0.08635819 -0.01692973 0.012035239
0.049744833 0.0130512435 0.0024634695 0.09766997 0.05653955 0.10746401 -0.0059002265 0.042637546
0.04059768 -1.9425333e-05 0.033763178 0.073782176 0.030568406 0.08092714 0.10222274 0.04669504
0.0050041755 0.042713586 0.016423311 0.06432377 0.008270909 0.024876803 0.13727777 0.037503038
-0.015858945 -0.057047445 0.15759073 -0.04736519 0.052293453 0.062223833 0.029535873 0.061602954
0.019122502 0.10791482 0.07696224 0.048422236 0.00070977095 0.09014858 0.033072285 0.066864066
-0.004335938 0.041449238 0.01488404 0.12039424 0.03726007 0.016502967 0.06789049 0.014237094
0.11103113 0.070494495 0.0603424 -0.01823055 -0.010485052 0.13963398 0.060556423 0.014463761
0.06412316 0.00080993574 0.023533799 -0.036538996 -0.018116701 -0.06512598 0.250878 0.014132826
-0.05414876 0.05076537 -0.0035872774 -0.01629761 0.19357647 -0.034983903 0.0211348 0.042940017
-0.014973167 -0.021466965 0.0060328613 0.021079715 0.021711273 -0.018232796 -0.027667549 0.052113123
-0.021117192 -0.021772524 0.0666248 0.082070954 0.0043107374 0.0033403202 -0.050131757 0.03397462
0.034391016 0.0925531 0.021479603 -0.05137098 0.047868308 -0.0059325015 0.0032465148 0.009654826
0.0018000483 0.002913866 0.0006554524 0.026747005 0.032722473 0.06975238 0.03321025 -0.020139145
0.0069240676 0.062621646 -0.003487038 0.07308958 0.016033564 0.042814706 -0.019770442 -0.024678709
0.0033504704 0.026209377 0.03443421 -0.03898199 -0.080003895 -0.044078957 0.024651162 -0.046888147
-0.0053721657 -0.007939468 0.07214278 0.03817908 -0.0042006383 -0.005937079 0.0032876693 0.030527005
0.01775751 0.03980668 -0.012879583 0.039054286 0.029249331 0.05001781 -0.086481445 0.029415429
0.03459397 -0.02125206 0.06205419 0.0171917 0.009405539 -0.04837473 0.100286454 -0.035526086
0.094859585 0.028926212 -0.031898763 0.026798673 -0.034105226 0.06308857 0.053691387 -0.014721835
-0.041769076 0.05129887 -0.046829678 -0.019232713 0.0299686 -0.007925989 0.027587743 0.04909457
0.046893228 0.0858907 0.07927841 -0.039932147 -0.04172491 -0.086209424 -0.026493 0.04762381
0.025613932 0.123180576 -0.044720925 0.010148336 0.03286557 -0.012216136 0.01952578 -0.058509324
0.056500636 0.11794078 0.0024044656 0.02331387 0.03353385 0.027214536 -0.07471741 0.03247327

lstm.weight_ih_l1 f4 [512, 128]
00000000: 9256 2bbc 3ad0 febc 7d44 19bd 5b32 83bc
00000010: f5a4 ec3a ac31 693d 83fd c3bc c5cc 5fbd
00000020: 8b1f f3bc ff61 b5bc 1e33 143d eb4b 523d
00000030: 71b4 3b3a 4709 bf3a 32ff 503d 347e 18bc
00000040: 06be 813c 018c 4dbd cbb0 89bc a290 d9bc
00000050: 6e34 b03c e88e 5bbc 8ea3 883c a5a6 81bd
00000060: fa36 893c 40b3 1a3c 990d a03c 79bc baba
00000070: 8ed9 813b 14a8 c7bb 491e f03c df6f eabb
00000080: f70e e83b bdc2 f1bc 98ca c3bc c8a0 c93b
00000090: 84ec 573c 8f08 4c3b 3256 05bd 9ad7 563d
000000a0: 7195 f73c 12be 94bc ae7d 393b 99f7 82bd
000000b0: 09ee 1f3d bbc1 db3c c137 543d 1cf8 5a3b
000000c0: 9759 69bd ff5e 083d c7b4 a2bd 761b 28bd
000000d0: bf91 c1bc d245 4d3a 942c 50ba 76de ce3c
000000e0: feb3 153d 1ac6 56bd ac4a 41ba 7869 523c
000000f0: 3286 14bd 6f01 033d 88a8 29bc a4be 6dbc
00000100: 946f 0cbd 951c 48bd 9fc4 0cbd ccb9 d13b
00000110: 9d6a efba f8da 3fbd 49eb 06bd 1a79 833d
00000120: a301 a3bb 92fd d43c dc04 1ebc c17c 953c
00000130: 7b68 38bb ef5b 573c 3eda 5d3c 6182 593c
00000140: f958 3dbd 281f fb3c fecf 8fbc bcc9 e63c
00000150: 1acc 443c 94e5 60bc 6875 fbbb b960 153d
00000160: b2cf 7bb9 4e41 4f3c 79e1 64bd daf9 91bb
00000170: fa2e a8bc 3ea6 083c b4fb 57bc 5f69 b1bc
00000180: 1c4c 843b e433 073c 385d 843d b845 d83c
00000190: 6102 103d 8bba f93c d1ad 943b 6807 a1bc
000001a0: b466 9fbc 54de a43c 28e1 60bc 1e33 4bbd
000001b0: 30ef 08bd 7a49 cabc 191b b53b 7713 a23c
000001c0: 348c 093c 6e12 85bb 7583 d83c 2a02 2fbb
000001d0: ef88 63bc 12ba b8bb fe97 d93c eca5 1f3d
000001e0: b165 6ebc 7fd0 f73c 5573 9c3b 412d a3bc
000001f0: cd25 74bc 4b00 4d3c a432 fcbc 55ee 3c3d
00000200: fe2b 00bd 4f0d 0d3d 936a b1bd 0d78 413b
00000210: c0d1 59bc 3308 ce3c 51d5 21bd d233 3dbc
00000220: 11ff 173d bbc3 e7bc bf3b c4bc f90c a53b
00000230: 5d95 5abc ef95 8f3d a8e9 bb3c 3aa0 5e3d
00000240: 9129 4dbd 8e59 db3c d9cd 8e3c 4c1a e8bc
00000250: 3e8c 84bd 9c7c b6bc 843e a53b ac42 b1bc
00000260: 2cfc 433d 25c3 5f3d 9da6 ccbb 1a56 08bd
00000270: 6ca9 f8bc e9e7 a3bc 031c f9bc 8749 b3bc
00000280: c92c db3c 9fa1 d73a 6706 ef3c 798c 35bc
00000290: 3b90 64bd 6b0b dc3d bead 103d 6ae8 c43c
000002a0: 6e9e b8bd 681b 6d3d 5f1b 3f3d d439 10bd
000002b0: 22cd a33c 04c5 533d 5682 0c3c 0d44 b03d
000002c0: 7b2c a8bd 1b5e c1bd 0895 653c 55a5 85bd
000002d0: 3610 8a3c fea9 d53c 1b37 cebd 7dfa 813d
000002e0: 7cfd 50bd 0397 4f3d 4707 413d 2b66 25bd
000002f0: 9184 58bd bf21 453d a2fd 20bc 731d a3bd
00000300: a1c7 afbc e61f c23c e942 dcbd 2625 6d3c
00000310: 7e67 f73c fbc8 4abd 3443 a0bd a148 763c
00000320: 04e5 883c 0893 1abd 33e2 e93d b8e1 643d
00000330: bce7 4d3c 1901 303d ca46 283d d8ef 693c
00000340: a1c4 903d 242d 883c 28d2 0a3c 0049 17bb
00000350: ee45 a23d fc48 21bd 156a f5bc 63e0 263d
00000360: 716d c33d 1e56 b5bc d4eb 503c 3658 c4bc
00000370: f560 d9bc 9acc 843d dad6 b83d 7f57 43bd
00000380: a6a6 bf3c 0504 08be 2055 123b 8f3d a6bd
00000390: ef4a 473b 9724 c83c 9200 44bd ee76 293d
000003a0: a115 f1bd eb7a a33c 50d2 82bd dce1 893d
000003b0: 5bb0 bd3d 3f4d 703d 06c0 7bbd 04bc 3cbc
000003c0: eca8 bd3b 8acd 233c 20f5 07bd 6578 67bd
000003d0: 87db 50bd f550 aebb 26a0 903c d777 a13d
000003e0: d302 e13c fa35 c63d db6c e4bc 68d1 18bd
000003f0: 13ca f4bc 0d09 363d e0b3 173c 91b0 66bb
-0.010457652 -0.03110515 -0.03741883 -0.016015222 0.0018054532 0.056932136 -0.023924595 -0.054638643
-0.029678127 -0.022141455 0.03618156 0.051341932 0.0007160372 0.0014574908 0.051024623 -0.009307433
0.01583768 -0.050182346 -0.016807934 -0.026558224 0.021509375 -0.013400771 0.016679551 -0.06330613
0.016749848 0.009442151 0.019537734 -0.0014246843 0.003962702 -0.0060930345 0.029311316 -0.0071544494
0.007081862 -0.029511804 -0.023900315 0.0061532 0.013178948 0.003113303 -0.032552905 0.052451707
0.030222626 -0.018157039 0.002830367 -0.06394882 0.039045367 0.026825776 0.051810984 0.0033412045
-0.056970205 0.03329372 -0.07944637 -0.041041814 -0.023629067 0.00078305334 -0.0007941213 0.025252562
0.036548607 -0.052435018 -0.00073734927 0.0128425285 -0.03626079 0.03198379 -0.010355122 -0.014510784
-0.034286097 -0.048855383 -0.0343672 0.0064003225 -0.0018266026 -0.046839684 -0.03293923 0.06419583
-0.0049745603 0.025999818 -0.009644713 0.018247964 -0.0028138447 0.013144477 0.0135408025 0.013275714
-0.04622743 0.030654505 -0.017555233 0.028172366 0.012011552 -0.013726611 -0.007673908 0.036469195
-0.00024014598 0.012649847 -0.05587909 -0.0044548335 -0.020530213 0.0083404165 -0.013182569 -0.02165669
0.0040373933 0.008252118 0.064630926 0.026400432 0.03515852 0.030484458 0.004537322 -0.019656852
-0.019458152 0.020125546 -0.013725556 -0.049609296 -0.033431232 -0.02469324 0.005526912 0.019784672
0.008395243 -0.004061035 0.026429871 -0.002670417 -0.013887628 -0.0056374157 0.026561733 0.038976595
-0.014550612 0.030250786 0.004774491 -0.01991904 -0.0149015905 0.012512277 -0.030785866 0.04612573
-0.031291954 0.03443652 -0.086629055 0.0029521019 -0.013294637 0.025150394 -0.039510075 -0.011547999
0.037108485 -0.028291574 -0.02395427 0.005036947 -0.013341275 0.070110194 0.022938564 0.054352023
-0.05008847 0.026776101 0.01743214 -0.028332852 -0.064720616 -0.022276215 0.005042853 -0.021638237
0.04784791 0.054629464 -0.006245448 -0.033285238 -0.030354224 -0.020008044 -0.030408865 -0.021885647
0.026754754 0.0016451365 0.029177858 -0.011080855 -0.05580161 0.10744365 0.035321943 0.024036605
-0.09014593 0.057887465 0.046656962 -0.0352114 0.019995276 0.05170156 0.008575996 0.0860673
-0.08211609 -0.09441777 0.014012583 -0.06525675 0.016853433 0.026082035 -0.10069104 0.06346605
-0.05102299 0.050681125 0.04712608 -0.040380638 -0.0528608 0.048127886 -0.009826096 -0.07964601
-0.021457495 0.023696851 -0.107549496 0.014474189 0.030200716 -0.049508076 -0.07825318 0.0150319645
0.016710766 -0.037737876 0.11420097 0.055879325 0.012567457 0.042969797 0.041083135 0.014278375
0.07068754 0.016623087 0.008472957 -0.0023084283 0.07923494 -0.039376244 -0.02995781 0.040741336
0.09542359 -0.02213579 0.012751538 -0.023967844 -0.02653549 0.06484337 0.09025355 -0.047690865
0.023394894 -0.13282783 0.002232857 -0.0811721 0.0030409654 0.02443151 -0.047852106 0.041373186
-0.117717035 0.019956073 -0.0638777 0.067325324 0.09262153 0.058667418 -0.061462425 -0.011519436
0.0057879593 0.009997735 -0.033192754 -0.0565113 -0.050990608 -0.0053197094 0.01765449 0.07884186
0.027467167 0.09678264 -0.027883938 -0.03730908 -0.029881513 0.044442225 0.009259194 -0.0035200457

lstm.weight_hh_l1 f4 [512, 128]
00000000: a43e 6abc 274d 023c b4fd 9c3c de61 68bc
00000010: bae1 45bd a2ac 21bc e555 273d 08de 69bb
00000020: 1f85 aebd ecfa 183c a824 81bc af89 23bd
00000030: efc4 1bbd 5f92 40bd f1eb 683c b1f6 8bbc
00000040: a572 e63c 881f b1bc 26b1 1e3d 1914 363d
00000050: 8541 71bd 1671 33bd 6a1f 2d3d 59e0 50bd
00000060: 9247 163d 10c6 4dbc 0ad1 cfbb d79f 21bc
00000070: b1f8 88bd 4b32 d73c a364 ccbc afed 683c
00000080: a2e5 443d d21a c63d 3126 8d3c a8f8 54bd
00000090: a1fe dbbc 436d 2d3c 7a49 9b3c 0676 90bc
000000a0: a4e2 7fbc 3ac3 68bc d22c 91bc cd42 6f3d
000000b0: 08a5 45bd d9e3 903d 0add a33d 4452 d3bc
000000c0: bd81 2cbc 1f1b ce3c 0be5 da3c 35e8 91bd
000000d0: 85db 3b3c fa3e 33bd 4488 473d 512b 9ebd
000000e0: dd9b dabd 006c 01bd 4fa1 cdbd a10f 99bc
000000f0: a53e c43d b78c 7dbb e71b b1bc 0892 3e3c
00000100: cd5a 10bc b143 63bc c68b 613c 5eac 513c
00000110: 8fc2 e13b e48f 70bc 0800 52bd 9eff 91bc
00000120: e8ac 1f3c 23db fabc d0af 7d3d 9cde 26bc
00000130: cb3d 343d bbbc dfbc 649f 2f3d 50ad 053d
00000140: 926a 153d 4446 29bd 37a1 173c 38db 9cbd
00000150: 934d e0bc 6ee4 d83c 9b1c 2cbd a2b3 97bc
00000160: 74db 8ebd a18c a8bd 909a ecbc 3088 04bc
00000170: b3dd 173d f827 b7bc 7702 fc3c caa7 613b
00000180: 9550 373c 2bdf 49bc 6237 14bd 5f5f 31bd
00000190: 0c61 29bc eb1c 033d 6d69 3e3d 6961 bb3b
000001a0: b7c9 973d b9a9 96bd 8d94 8f3c 1cc5 9fbc
000001b0: 88f5 8a3c fc56 ce3c bbfd 123d accb dfbc
000001c0: 7cde 7ebd ff16 04bd 94da 79bc cdde c23d
000001d0: d9de b73d ee2a edbb 4d2f 053d c90a d73c
000001e0: 5152 c6bd 8a95 0a3d 1bbc 3c3d e664 793d
000001f0: 4f7e 83bb 10bd 663d 5f26 c4bc f583 563d
00000200: e18d 8cbc d8c0 4c3d 3617 d93c 38ba 533c
00000210: 7c22 cdbb dc81 df3d 47c0 40bd 0a61 563a
00000220: f530 a83d 78a4 73bd ca17 bc3d 6df1 38bc
00000230: f4f8 3ebd 0551 b73c 3cbb 70bc ad1b a6bb
00000240: a979 743c 0393 393b 687a cabc 7e66 a7bc
00000250: 6981 fbbc cf64 61bc 1048 383d 1814 d83b
00000260: 4caf 773d 4ee6 e5bd 01bf 9fbb a29b 61bc
00000270: 19fa acbc e314 113d 82a8 45bd c336 123d
00000280: 4614 07bd 7f1e 8abc 114d 89bc 0694 50bc
00000290: 7079 953d 1741 923d b277 afbd 57be ee3b
000002a0: d8c1 863d 5f36 b63b bd5d 173d 926c 2dbd
000002b0: 1930 9dbd 34a5 473c 27aa 093d b85a 97bd
000002c0: de0d 2b3b ac48 4e37 3d33 3dbc c326 ea3c
000002d0: 2be2 0e3c 4831 6dbd ea8b 3e3a 0560 c0bd
000002e0: c513 34bc d112 e6bc b669 11bc db83 2e3d
000002f0: 3c8f 16bc e3f4 9fbd 9ba3 31bd 49c5 67bd
00000300: f449 db3b 952a bbbc c349 aabd 80ca 893c
00000310: 458d 7bbb 073e 13be 106b c43c 9537 d53b
00000320: e1e9 a7bd a7e4 c33c b615 433d f8e0 df38
00000330: 2c9c 9c39 8151 0bbd 9ddb 7b3c 9ca9 a13d
00000340: df50 8b3d 898a 353d 0062 cc3c 9343 b1bc
00000350: 8df5 9e3c 56c6 973c 5c06 613d 88bf a9bb
00000360: 4c9a 873d aab1 aabb 6ab1 943d 3a58 a9bc
00000370: 4481 a9bd a376 2ebc e528 283c c046 8a3b
00000380: ca3a a2bd 1052 433b d55d 1fbd d937 703d
00000390: 7416 d03d a8f2 8cbd dc5f b6bc e1dd a9bd
000003a0: a832 99bc aec4 6e3b f8f4 bf3c 0110 91bd
000003b0: 6569 3ebd ae9d 433d 9360 b5bc b3d2 25bd
000003c0: 528a 623d b5e6 55bc 470c 0b3d d14f 20bc
000003d0: b09d d93c a20e 15bd 7c40 1a3c 74be 02b9
000003e0: 4473 8dbc 9306 ad3c e360 80bd 7289 ebbc
000003f0: e9a1 993d 0122 8cbd 57ab 363c a487 1f3d
-0.014297161 0.007952965 0.019163944 -0.01418349 -0.048310973 -0.009867819 0.0408534 -0.003568532
-0.085214846 0.009337168 -0.01576455 -0.039926227 -0.038029607 -0.04701459 0.014216409 -0.017085405
0.028130839 -0.02162148 0.03874316 0.04445276 -0.058900375 -0.04380902 0.042266287 -0.050995205
0.03668935 -0.012559429 -0.006342058 -0.009864769 -0.06688059 0.026269099 -0.024950331 0.014216824
0.048070557 0.09673084 0.017230125 -0.05199495 -0.026854815 0.010585132 0.018955935 -0.017634403
-0.015618 -0.014206702 -0.017721567 0.058413316 -0.04825309 0.070747085 0.08001144 -0.025796063
-0.010528979 0.025159417 0.026720544 -0.07124368 0.011465912 -0.04376123 0.048713937 -0.07723106
-0.1067426 -0.031597137 -0.10040533 -0.01868421 0.09582261 -0.003868861 -0.02161975 0.011631496
-0.008810711 -0.013871119 0.013766235 0.012797443 0.0068896483 -0.014682744 -0.05126956 -0.017822083
0.009745814 -0.03062207 0.061935246 -0.01018491 0.044004243 -0.027311673 0.042876616 0.032635987
0.036478586 -0.041326776 0.009254745 -0.07659 -0.02738074 0.026476111 -0.042019468 -0.018518273
-0.06975451 -0.08229948 -0.028882295 -0.00808911 0.037076663 -0.022357926 0.030762894 0.0034432285
0.011188646 -0.012321274 -0.03618563 -0.043303844 -0.010338079 0.03201 0.04648726 0.0057183993
0.07411521 -0.07356591 0.01752689 -0.019503169 0.016962782 0.025187962 0.035886507 -0.027318798
-0.062223896 -0.032248493 -0.015249867 0.09515152 0.08978052 -0.0072377836 0.032515813 0.02625026
-0.09683669 0.033834018 0.04607783 0.06088724 -0.00401286 0.056332648 -0.023944078 0.052371938
-0.017157497 0.049988598 0.026500326 0.012922816 -0.0062602144 0.109134406 -0.04705837 0.0008177912
0.08212463 -0.05948302 0.09184225 -0.011288029 -0.04662414 0.0223775 -0.014693078 -0.005069217
0.014921584 0.0028316386 -0.024716571 -0.020434614 -0.030701356 -0.013756945 0.0449906 0.0065941922
0.06046991 -0.11225568 -0.0048750644 -0.013770016 -0.02111535 0.03542031 -0.048256405 0.035696756
-0.03297832 -0.016860245 -0.016760381 -0.012730604 0.07298553 0.07141321 -0.08567752 0.007285874
0.065799415 0.0055606808 0.03695463 -0.04233987 -0.076751895 0.012185384 0.033609536 -0.0739035
0.0026100795 1.2295477e-05 -0.011547861 0.028582936 0.008720915 -0.057908326 0.00072687736 -0.09393314
-0.010991042 -0.028085144 -0.008875301 0.042606216 -0.009189423 -0.0781038 -0.043368917 -0.05658463
0.0066921655 -0.022847453 -0.0831485 0.016820192 -0.0038383764 -0.1437913 0.023976833 0.00650687
-0.08198906 0.02391274 0.047628127 0.00010675372 0.00029870996 -0.034013275 0.015372184 0.078936785
0.06802534 0.04432157 0.024949074 -0.021638667 0.019404197 0.018527191 0.054937705 -0.005180303
0.06621227 -0.0052091675 0.072604015 -0.020671953 -0.082766086 -0.010648402 0.010263656 0.00421986
-0.079213694 0.0029803552 -0.038907845 0.05864701 0.101605326 -0.068822205 -0.022262506 -0.08294273
-0.018700913 0.0036433148 0.02343224 -0.07083131 -0.04648723 0.047757797 -0.022140777 -0.04048414
0.055307694 -0.013055493 0.033947255 -0.009784655 0.02656445 -0.036390908 0.009414788 -0.00012468715
-0.017266877 0.021121299 -0.0626848 -0.028752062 0.07501585 -0.06842423 0.011149249 0.038947716

lstm.bias_ih_l1 f4 [512]
00000000: 956c 203d 0c1c 13bd a6df 503d e2a7 31bd
00000010: 977c 11bc 7f62 b7bc c0fd 693d 75b8 4bbd
00000020: 0e8a 0c3d 58d6 5e3d 0050 9f3c d617 653a
00000030: be7b bf3c e9a3 bb3c c045 b6bb 6107 40bd
00000040: e83a 99bd 5fe3 2e3d ecee 2ebc 50e4 0abd
00000050: a254 053d 775b 45be 0bcd 883d 9d0c 8f3c
00000060: d6e8 2cbd 3027 5e3d 900b 4a3d 11a9 fc3c
00000070: 80f0 50bc 028e 843c 9b57 f9bc 4e27 e13c
00000080: c174 333d b37c 9dbd 9e24 a0bd de91 7f3c
00000090: a1a7 fabc fc93 cabd 3f45 39bc f6e1 02bd
000000a0: 09fb 29bc 5fbb f2bb cf73 cf3d 9721 7b3d
000000b0: 65bb d53a 5526 cc3c 797f 883c a40d 02bd
000000c0: f51e 7cbc 8cd1 ba3d a0ea 48bd f50c c2bd
000000d0: 046d b13d 195f b9bc f223 f73d 3434 573d
000000e0: 8332 8a3c 91a5 0dbc 9c53 f7bc f11e 66bd
000000f0: f013 183b 19e5 c63c d831 6d3d 00fd e53c
00000100: 8754 8bbd a901 a8bd a25b 45bb aa08 423c
00000110: d6c3 083d 4b77 563c 3795 45bd 0330 0b3d
00000120: 5511 253d 2380 88bb 8104 23bc 0e33 83bc
00000130: 0a89 6c3d ab8c c63c 195b 02bd b0c1 d93c
00000140: 3151 c33d 728b 5bbc 8dc7 363d 77e4 c0bb
00000150: fd99 593b e385 04bc 2bc8 b3bb 8d58 edbc
00000160: e31d 16bb 6a89 d43c 7ccb 39bd e383 86bc
00000170: 5b8a 553a 5b0e 5dbc 6956 a03c e029 e73b
00000180: dc00 343d babf ca3b 08cf 963a b432 f73c
00000190: 7af8 373d 0957 643d 55f0 0a3d 613a 43bd
000001a0: 45dc c23c f364 6f3d 158b 203a f365 a23c
000001b0: 71d5 063c 2e14 28bc 4658 12bd d8bf 823b
000001c0: d306 11be c0b9 bebc d6ec 94bd 258f d9bb
000001d0: e31b ebbc 4631 283d 426f 033d 4a76 f2bc
000001e0: cdd8 1dbd e85f 233d eb1d 42bc 004a dabd
000001f0: 1a88 50bd d8d7 0438 e361 213d 3603 1d3e
00000200: 1fdc 7f3d e7f9 9a3d e479 7e3c c150 c03d
00000210: 396c 4f3d 43bf 3d3e 879b a13d a459 133e
00000220: d52a 1e3e a0ca 713c e4e1 013d b688 4b3e
00000230: ec27 db3c 418f b03c 67e1 8d3d b193 2a3e
00000240: af84 163d 3442 9d3c e746 2a3d 73ee 5d3d
00000250: 20ae 023e 619c ce3d 903a 6c3d 57f6 313d
00000260: 9ea6 3d3c 1d90 973d af42 ac3d 7a92 1a3d
00000270: 4268 8b3c 9284 493e 1f85 273d 7c92 1f3d
00000280: 0416 8b3d 5502 9e3d 08c1 f13c 9045 90bb
00000290: bfff d53c c7e5 263e b7ad 4d3c 62ef 2a3d
000002a0: bd43 d73d 06de c43c b863 1f3e a9ee 9e3d
000002b0: 4ef2 073e 9175 2f3d 5535 f33d f20d 1c3e
000002c0: 7d98 f83d 0015 d13d 1eb6 863c 5a69 b63d
000002d0: 6ef2 833d f173 8e3d b7f3 f03d ebbf 5f3d
000002e0: 7aa1 043d e200 003e 0017 bb3c 9ebc c63d
000002f0: 9707 123d 198f 853d 9484 a53d b41b 933d
00000300: e0b7 033d 0e30 de3d 7aec 043d 1edb de3c
00000310: 052f c93d 0418 cd3d 7721 033e bfa3 a03d
00000320: 40f7 bb3d 2587 363d c57a f63d 3a2d 373c
00000330: 4352 803d 3c67 873d cd52 b63d 0001 023e
00000340: 5259 d23d 9a99 953d 53f2 783d 18bc 503d
00000350: 02d6 0f3e 634e 8c3d 0b09 85bc 932a 993d
00000360: 14db 683d 8aa2 683c b163 b03d 32de 183e
00000370: f020 c1ba 24be da3c 1359 d93d 0ef9 333d
00000380: dc81 4c3c ca7a 3a3d b7c6 b33c cf37 de3d
00000390: 5fc1 343d 4b39 143e a6d5 4f3d 29e5 8b3d
000003a0: 6c2c dd3d 6227 363d 5941 e13d 2591 893c
000003b0: 287f 6bbc 956a 153e 568f 9f3d d6a4 493c
000003c0: 40af 1c3e 5582 ecbc 45b5 763e ccc1 773d
000003d0: 6045 d23c 127c 50ba 49ef 783d 946d d63c
000003e0: 94e5 a03d 7400 2a3d 13bd 0d3e 67c2 d23d
000003f0: b752 d73d 9b4a d03c 9339 4f3d 245a 0e3d
0.039166052 -0.03591542 0.050994538 -0.043372996 -0.008879802 -0.022385834 0.05712676 -0.04973646
0.034311347 0.054403633 0.019447327 0.00087392086 0.023374435 0.022905307 -0.005562514 -0.046882037
-0.074819386 0.042697307 -0.010677081 -0.033909142 0.032551415 -0.19273172 0.06679734 0.01746207
-0.042214237 0.05423659 0.049327433 0.030842336 -0.012752652 0.016180996 -0.030437281 0.027484562
0.043812517 -0.076898 -0.07819484 0.015598742 -0.03059751 -0.09891507 -0.011308013 -0.031953774
-0.010374793 -0.0074075903 0.101295106 0.06131133 0.0016306458 0.024920622 0.016662346 -0.03175129
-0.01538824 0.09121999 -0.04905188 -0.094751276 0.08663371 -0.022628354 0.12067403 0.05254002
0.016869789 -0.008645431 -0.030191235 -0.05618185 0.0023205243 0.024279164 0.057908863 0.028074741
-0.06803232 -0.08203442 -0.0030114432 0.011842886 0.03338989 0.013089965 -0.048238005 0.033981334
0.040299732 -0.0041656657 -0.009949804 -0.016015556 0.057747878 0.024236998 -0.03182516 0.026581615
0.095369704 -0.013399946 0.0446239 -0.00588661 0.0033203356 -0.008088562 -0.0054865084 -0.028972888
-0.0022905997 0.02594443 -0.045360073 -0.01642031 0.0008145922 -0.013492192 0.019572454 0.0070545524
0.043946132 0.0061874064 0.0011505792 0.030175544 0.0449147 0.055747066 0.033920605 -0.047663096
0.023786673 0.058445882 0.00061242405 0.019824004 0.008229599 -0.010258717 -0.035728715 0.0039901547
-0.1416276 -0.023281932 -0.07271735 -0.0066393786 -0.02869982 0.041062616 0.032088526 -0.02959742
-0.038536835 0.039886385 -0.011847953 -0.10658646 -0.050911047 3.1672273e-05 0.039399993 0.15333256
0.062465783 0.07567196 0.015531991 0.093904026 0.05064032 0.18529992 0.078909926 0.14389664
0.15446027 0.014757782 0.031709567 0.1987637 0.026752435 0.021552684 0.06927758 0.16657902
0.03674763 0.019196607 0.041571524 0.05418248 0.12761736 0.10088421 0.057673037 0.04344782
0.011575369 0.07400534 0.084111564 0.037737347 0.017017487 0.19679478 0.04089844 0.038958058
0.067913085 0.077152885 0.02951099 -0.0044028237 0.026122926 0.1629859 0.012553624 0.0417322
0.10510967 0.02403165 0.15565383 0.077603646 0.13276026 0.04283673 0.11875407 0.15239695
0.1213846 0.102090836 0.016444262 0.08906813 0.06442724 0.06955708 0.11765235 0.054626387
0.03238056 0.12500337 0.022838116 0.097039446 0.03565177 0.06521434 0.08081928 0.07183018
0.03215778 0.108490095 0.032452084 0.027204093 0.098234214 0.10014346 0.12805735 0.07843732
0.091780186 0.044562478 0.12035135 0.011180216 0.0626569 0.06611487 0.08902512 0.12695694
0.10270943 0.07304688 0.060777973 0.05096063 0.14046481 0.068508886 -0.016239664 0.074788235
0.056849554 0.014198909 0.086127646 0.14928511 -0.0014734548 0.026701994 0.10612693 0.04393869
0.012482133 0.045527257 0.02194534 0.108504884 0.044129726 0.1447498 0.05074086 0.06830818
0.107994884 0.044471152 0.10998792 0.016792843 -0.014373578 0.14591439 0.07791011 0.012307366
0.15301228 -0.02887074 0.24092586 0.060487553 0.025667846 -0.0007953058 0.060775075 0.026175298
0.078562886 0.04150434 0.13841657 0.102909856 0.105138235 0.0254262 0.050592016 0.034753934
