models/best_model_fold_3.pt (torch, 864423 bytes, 14 tensors)

lstm.weight_ih_l0 f4 [512, 28]
0.008343281 -0.0023831294 0.0032360815 -0.003081123 -0.00065826613 -0.04157941 0.0019232822 0.04118355
0.08370763 0.025376922 0.09179677 0.108780906 -0.014586364 -0.009379681 -0.021283727 -0.008237953
-0.06453275 0.006745152 -0.011966238 0.02275844 0.05613664 0.02911835 0.014866938 0.080625266
-0.06277335 -0.0113521265 0.06347249 0.014742564 0.00014543002 0.00662635 -0.016688243 -0.06512297
-0.055480395 -0.027614484 0.028858524 -0.025733948 0.0014195935 -0.02210349 -0.025807066 0.012400598
0.03095435 0.1188618 0.008487197 0.118419394 -0.010176947 -0.037753798 0.0041033304 -0.02715596
-0.0035517015 0.0022024177 0.098520584 -0.005458647 0.009912118 0.059401613 0.01828678 -3.964985e-05
9.988149e-05 0.0015590378 0.018928306 0.03358157 -0.0029149489 -0.020335652 -0.076589145 0.09291553
0.14378756 0.02272512 0.057958774 0.14092998 0.015459629 0.018238993 0.065022625 -0.036474343
-0.026849275 -0.045948174 -0.013246196 0.0139101595 -0.034929346 0.07098384 0.00042583275 0.008813523
-0.053206947 -0.04754806 -0.0015115056 0.0027318823 6.6075773e-07 -0.00010207006 0.010418497 0.06349742
0.079847634 0.036729854 0.07607558 0.04363508 0.16411476 -0.01190983 0.03690716 -0.018104777
-0.07104558 -0.080636814 0.0040553487 -0.004935892 0.014178589 0.08466958 0.009041199 0.002152827
0.05573683 -0.02868293 0.056849375 0.0566681 -0.047034517 -0.04638352 -0.007640196 0.002798364
1.5922096e-05 0.006102053 0.018791443 -0.016841082 -0.016835347 0.06696854 0.06281863 0.10022826
0.06687054 0.07988807 -0.06469526 -0.00032865716 0.026067467 0.008972689 0.0792071 -0.048569564
0.12275297 0.015805177 -0.04139369 0.030126914 -0.058250617 -0.06790641 -0.12897906 -0.03873841
-0.081999995 -0.0118334545 0.0073228967 6.732274e-07 -3.9656068e-05 0.00271914 -0.027026437 -0.003069481
-0.010129605 0.041351724 -0.044056293 0.0048312796 -0.0025895657 0.071212724 -0.019448858 0.1054739
-0.044735037 0.055690568 0.09764393 0.10403826 0.16362254 0.015598382 0.026679194 -0.053632207
0.03960543 -0.043314647 0.0072404956 0.053142164 0.05392401 -0.01860094 -0.037213378 -0.02430618
-3.771916e-07 0.009982697 -0.009237162 -0.08980758 0.026034476 -0.04252912 -0.038129847 0.030705275
0.031044293 -0.03327583 0.001295456 -0.014886068 0.053725198 0.08230594 0.08459024 0.12221785
0.009007634 -0.045651615 -0.06293233 0.080515236 0.11847798 0.008151179 -0.070141636 0.040692437
0.01917791 -0.03875713 0.034837693 -0.020317439 -8.4622465e-05 0.0025759644 -0.055714972 -0.07536015
0.021389944 -0.030121638 0.06017325 0.08288449 0.04477996 0.04215834 0.0735647 0.074860625
0.0010401218 -0.048671864 -0.059227798 0.08179823 0.024105404 0.019506795 0.07374077 0.07138132
-0.09701902 -0.027615309 0.027850317 0.052519113 0.071938016 0.040171955 -0.02025059 -0.0027597952
6.4952947e-06 -0.004955872 0.052507427 0.0783877 0.052979145 -0.02229604 -0.0605821 -0.025384586
-0.0372346 -0.11491905 -0.08420942 -0.027610661 0.038169436 -0.020153608 0.07888148 -0.025796652
-0.04717265 -0.105516285 -0.07337617 -0.004684917 -0.05804401 0.03939596 0.012160569 -0.009377835
-0.045957293 -0.04594545 -0.01602801 0.0015149313 9.1700625e-05 0.032189813 -0.0007324493 0.017943377
00000000: 42b2 083c 472e 1cbb 7014 543b abec 49bb
00000010: 7e8f 2cba 2c4f 2abd a416 fc3a 15b0 283d
00000020: e86e ab3d 43e3 cf3c f2ff bb3d 86c8 de3d
00000030: a5fb 6ebc 3cad 19bc 365b aebc 7bf8 06bc
00000040: bf29 84bd 7006 dd3b 0a0e 44bc e86f ba3c
00000050: 89ef 653d 9b89 ee3c 7594 733c dc1e a53d
00000060: 508f 80bd 45fe 39bc ddfd 813d cc8a 713c
00000070: 937e 1839 da21 d93b c8b5 88bc 315f 85bd
00000080: 693f 63bd c537 e2bc b668 ec3c 00d0 d2bc
00000090: a711 ba3a 6112 b5bc 5769 d3bc e12b 4b3c
000000a0: fa93 fd3c d16d f33d e20d 0b3c de85 f23d
000000b0: 36bd 26bc baa3 1abd 3b75 863b 2d76 debc
000000c0: aac3 68bb 7056 103b 29c5 c93d 73de b2bb
000000d0: 7066 223c 1b4f 733d 28ce 953c b44d 26b8
000000e0: 7777 d138 a158 cc3a 890f 9b3c d48c 093d
000000f0: ba08 3fbb f496 a6bc c5da 9cbd 7f4a be3d
00000100: 0c3d 133e 082a ba3c 2e66 6d3d f34f 103e
00000110: 624a 7d3c f169 953c 952a 853d 1f66 15bd
00000120: 03f3 dbbc 2734 3cbd 9306 59bc 70e7 633c
00000130: 1312 0fbd fa5f 913d 4e42 df39 9866 103c
00000140: 87ef 59bd c1c1 42bd b61d c6ba 6109 333b
00000150: ed5e 3135 720e d6b8 58b2 2a3c ef0a 823d
00000160: 2887 a33d 0b72 163d 84cd 9b3d b3ba 323d
00000170: b30d 283e 7321 43bc f62b 173d 7850 94bc
00000180: 5880 91bd ea24 a5bd bbe2 843b 43bd a1bb
00000190: 504d 683c 3f67 ad3d 8a21 143c 7216 0d3b
000001a0: 4d4c 643d 77f8 eabc e4da 683d cf1c 683d
000001b0: 44a7 40bd a5fc 3dbd 9c5a fabb c264 373b
000001c0: 7190 8537 bbf3 c73b 83f0 993c 4ff6 89bc
000001d0: 48ea 89bc cd26 893d 0ea7 803d 7944 cd3d
000001e0: 6cf3 883d 5b9c a33d f37e 84bd 9e4f acb9
000001f0: 718b d53c 2f02 133c 5537 a23d e1f0 46bd
00000200: e965 fb3d dc79 813c 6e8c 29bd b8cc f63c
00000210: 3398 6ebd 8412 8bbd 1613 04be 2bac 1ebd
00000220: 9def a7bd 1be1 41bc e9f4 ef3b d6b7 3435
00000230: 6154 26b8 9933 323b 8c66 ddbc 5929 49bb
00000240: a5f6 25bc 6d60 293d 5f74 34bd b64f 9e3b
00000250: b4b5 29bb fad7 913d 3653 9fbc b302 d83d
00000260: 163c 37bd cb1b 643d 8af9 c73d 0312 d53d
00000270: ab8c 273e 5b90 7f3c 538e da3c 72ad 5bbd
00000280: 4e39 223d b36a 31bd ae41 ed3b 99ab 593d
00000290: 6cdf 5c3d 0061 98bc 0e6d 18bd c11d c7bc
000002a0: d280 cab4 778e 233c 7757 17bc 09ed b7bd
000002b0: 4146 d53c 0433 2ebd 0b2e 1cbd a189 fb3c
000002c0: 9a50 fe3c 3d4c 08bd 4acc a93a b2e4 73bc
000002d0: f40e 5c3d 0490 a83d a63d ad3d 5a4d fa3d
000002e0: c194 133c 30fd 3abd aae2 80bd 2ce5 a43d
000002f0: 95a4 f23d 868c 053c 6ba6 8fbd 1dad 263d
00000300: fe1a 9d3c ccbf 1ebd f8b1 0e3d c270 a6bc
00000310: 5777 b1b8 83d1 283b 6235 64bd 6c56 9abd
00000320: f739 af3c a7c1 f6bc 3a78 763d 58bf a93d
00000330: 316b 373d 39ae 2c3d 17a9 963d 8750 993d
00000340: b254 883a 265c 47bd d998 72bd d585 a73d
00000350: b278 c53c b7cc 9f3c 6705 973d 5f30 923d
00000360: e8b1 c6bd 8039 e2bc 5926 e43c 481e 573d
00000370: 3d54 933d 598b 243d 91e4 a5bc aedd 34bb
00000380: 28f2 d936 de64 a2bb 0712 573d bb89 a03d
00000390: a900 593d 2fa6 b6bc f024 78bd 56f3 cfbc
000003a0: 4f83 18bd ae5a ebbd fd75 acbd c12f e2bc
000003b0: 8e57 1c3d 2e19 a5bc 9d8c a13d 8053 d3bc
000003c0: 1c38 41bd ec18 d8bd 3f46 96bd ef83 99bb
000003d0: 8ebf 6dbd a85d 213d 203d 473c 7ea5 19bc
000003e0: b73d 3cbd 4c31 3cbd 2c4d 83bc a990 c63a
000003f0: 664f c038 77d9 033d d701 40ba fdfd 923c

lstm.weight_hh_l0 f4 [512, 128]
-0.024081536 -0.017146679 0.008481189 -0.01999407 -0.023945248 -0.02803243 -0.0048792376 0.048801266
0.037792698 0.026964087 -0.014649821 -0.0029312805 -0.026869513 0.016637413 -0.034354035 -0.002561703
-0.014661119 -0.0014294111 0.011562015 0.007525165 -0.017194469 0.020779302 -0.007138071 0.02041003
0.023428954 0.007019296 -0.034405854 0.0005940966 0.014989669 -0.0316499 0.010392047 -0.037304062
-0.03367089 0.019969404 0.009909337 0.023268687 0.011375879 -0.028726172 0.018443473 0.040478952
0.0069685075 0.02086448 0.028244575 -0.0013757929 -0.043807223 -0.000818897 0.023030821 0.011464354
-0.0047516017 -0.014402889 0.038207423 -0.021977996 0.015016625 -0.015796194 0.036105823 -0.013194999
-0.012918281 0.040511288 0.026740922 -0.03916375 0.004191142 0.016565625 -0.009642366 0.012883411
0.007505103 0.039319266 -0.025887182 -0.021405894 -0.01734845 -0.021515606 0.030300729 -0.0020268962
-0.023139983 -0.03875274 -0.028717898 -0.014000774 -0.039616827 -0.005660255 -0.022868667 0.027799807
0.015753623 -0.020549688 0.010294039 -0.021826064 -0.010078118 0.0101757245 -0.020411871 0.006844923
-0.0037421032 0.02094569 -0.0073072575 0.009950888 -0.014350152 0.032429587 0.07535631 0.048733965
-0.0028402626 -0.030808736 0.010093309 -0.011646938 0.0081506185 -0.027277952 0.038908046 -0.0055271126
-0.015801901 0.018953998 0.022439148 0.030206708 0.01640147 0.031828385 -0.030863268 -0.009560752
-0.007249185 0.016086118 -0.008910533 -0.013266949 -0.030062143 0.015288643 -0.043836705 0.030989444
0.0201834 0.03574309 -0.005735513 -0.021995945 -0.012341764 -0.0059654284 7.414521e-06 -0.009767105
6.516991e-05 -0.006877389 -0.005555976 -0.001988828 -0.0004902519 -0.009086244 -0.016829023 -0.0041132625
0.0019623756 0.011097259 -0.0055192146 0.002440509 -0.0029715577 0.011644669 0.004046405 -0.0132248495
0.0067573916 0.016142707 -0.007794489 0.010039332 0.0074439687 -0.008907074 0.00554655 -0.007543051
0.0063644424 -0.008846432 -0.0022605755 -0.01681827 -0.013248982 0.010084717 -0.019488718 -0.001561698
-0.00011252849 -0.0011124787 0.008361108 -0.00208097 -0.016439551 0.0022710634 -0.009071246 0.0005732706
-0.005358935 0.0064007104 -0.0051243184 -0.0006085408 -0.000856688 0.004288207 -0.0056313686 -0.009534673
0.0080412375 0.008936497 -0.0049453042 0.0056665433 -0.00827321 0.0046381005 -0.0074451542 -0.0034718635
-0.0015637026 -0.0006666413 -0.0041518933 0.002218749 0.008833176 0.021982051 -0.008010137 0.012190234
-0.013113079 0.006154291 0.017019657 -0.007159924 0.010772621 0.005639074 0.00081876887 -0.0049156346
0.00022046504 -0.009054174 0.0048207617 -0.0022332168 -0.0054229465 -0.0073849475 0.0025516085 0.009041023
-0.0113768885 -0.0013658919 -0.018628769 0.014710121 -0.008849612 -0.005528954 -0.014783226 0.00081246503
-0.013501601 0.012518218 -0.009655418 -0.008593617 -0.001078714 0.0064656246 -0.00021017673 2.034819e-05
0.0032082796 0.004300696 -0.011923048 -0.001762154 -0.0045144064 0.0012798271 0.010067311 -0.010894856
-0.005303772 0.0026951656 0.00415684 -0.0027537937 -0.013724533 -0.004539107 -0.005712829 0.00039798717
0.0025942181 -0.0058851694 -0.005979415 0.0037830658 0.0035936427 -0.0015523159 -0.0051944726 0.0052642063
-0.00083978317 -0.00037962548 0.0064598494 -0.0017386816 5.429925e-05 0.003889213 -0.013056504 0.012128067
00000000: a446 c5bc 3177 8cbc aff4 0a3c 9bca a3bc
00000010: d328 c4bc 44a4 e5bc 03e2 9fbb d6e3 473d
00000020: 84cc 1a3d cae3 dc3c ce05 70bc ba1a 40bb
00000030: 741d dcbc 2f4b 883c d1b6 0cbd 3fe2 27bb
00000040: 3135 70bc 145b bbba 9b6e 3d3c a995 f63b
00000050: 6adb 8cbc 5b39 aa3c 7be6 e9bb ef32 a73c
00000060: 14ee bf3c 1f02 e63b 27ed 0cbd 26bd 1b3a
00000070: 3b97 753c 53a3 01bd 6843 2a3c 25cc 18bd
00000080: 7dea 09bd e096 a33c c65a 223c f99d be3c
00000090: e561 3a3c 2653 ebbc c416 973c 42cd 253d
000000a0: 1458 e43b fceb aa3c 2b61 e73c f353 b4ba
000000b0: 346f 33bd 3fab 56ba 22ab bc3c fcd4 3b3c
000000c0: 53b3 9bbb 18fa 6bbc 637f 1c3d 330b b4bc
000000d0: 4a08 763c 0567 81bc b3e3 133d d62f 58bc
000000e0: 33a7 53bc 2aef 253d c70f db3c 2b6a 20bd
000000f0: d955 893b a2b4 873c 04fb 1dbc f114 533c
00000100: 5eed f53b 3d0d 213d 5b11 d4bc 6a5b afbc
00000110: 561e 8ebc 7f41 b0bc 3c39 f83c add5 04bb
00000120: 1090 bdbc 31bb 1ebd cc41 ebbc 8163 65bc
00000130: 4145 22bd a979 b9bb 1257 bbbc 6cbc e33c
00000140: be0d 813c d257 a8bc 54a8 283c 93cc b2bc
00000150: b11e 25bc 15b8 263c cc36 a7bc 604b e03b
00000160: 133e 75bb 4c96 ab3c b871 efbb 0d09 233c
00000170: e61c 6bbc e3d4 043d 6954 9a3d 449d 473d
00000180: b323 3abb 9a62 fcbc 685e 253c ccd2 3ebc
00000190: 2c8a 053c 0376 dfbc 0b5e 1f3d c81c b5bb
000001a0: fd72 81bc 6a45 9b3c 4ed2 b73c 0f74 f73c
000001b0: 605c 863c 7b5e 023d f7d4 fcbc b3a4 1cbc
000001c0: 928a edbb 09c7 833c 7cfd 11bc 9e5d 59bc
000001d0: e244 f6bc 377d 7a3c 1e8e 33bd 93dd fd3c
000001e0: a857 a53c 5967 123d f8f0 bbbb d730 b4bc
000001f0: 1c35 4abc a479 c3bb 40ca f836 3506 20bc
00000200: d4ab 8838 b85b e1bb e80e b6bb ff56 02bb
00000210: 4084 00ba 78de 14bc 05dd 89bc 8cc8 86bb
00000220: 339b 003b 47d1 353c 87da b4bb f2f0 1f3b
00000230: 77be 42bb 48c9 3e3c b597 843b 0aad 58bc
00000240: 1c6d dd3b b63d 843c ea68 ffbb 037c 243c
00000250: 89ec f33b faee 11bc d5bf b53b b32b f7bb
00000260: d08c d03b a0f0 10bc 2a26 14bb 78c6 89bc
00000270: 4212 59bc 5e3a 253c cea6 9fbc e4b1 ccba
00000280: 46fd ebb8 97d0 91ba 07fd 083c e260 08bb
00000290: 3dac 86bc 1fd6 143b 909f 14bc 8a47 163a
000002a0: 019a afbb 0dbd d13b e6e9 a7bb 7b86 1fba
000002b0: 5c93 60ba 1684 8c3b 5887 b8bb 5137 1cbc
000002c0: 65bf 033c 636a 123c 380c a2bb 69ae b93b
000002d0: 5c8c 07bc 35fb 973b 7bf6 f3bb 3488 63bb
000002e0: 27f5 ccba 8ac1 2eba 9b0c 88bb 6e68 113b
000002f0: 07b9 103c b413 b43c f33c 03bc 8cb9 473c
00000300: 3dd8 56bc efa9 c93b cf6c 8b3c cc9d eabb
00000310: a67f 303c fbc7 b83b a6a2 563a 5513 a1bb
00000320: a22c 6739 f557 14bc 7bf7 9d3b 295b 12bb
00000330: f9b2 b1bb 6efd f1bb e338 273b cd20 143c
00000340: 2166 3abc ba07 b3ba 5c9b 98bc b802 713c
00000350: f7fd 10bc 3a2c b5bb 5835 72bc 9bfb 543a
00000360: d235 5dbc 3619 4d3c c231 1ebc 3ecc 0cbc
00000370: a363 8dba 97dd d33b e362 5cb9 68b1 aa37
00000380: 0042 523b daec 8c3b e358 43bc 14f8 e6ba
00000390: 96ed 93bb dfbf a73a 5df1 243c 5780 32bc
000003a0: 44cb adbb 60a1 303b 1a36 883b fe78 34bb
000003b0: dddc 60bc cabc 94bb af32 bbbb efa8 d039
000003c0: c203 2a3b 61d8 c0bb f8ee c3bb 50ed 773b
000003d0: 5283 6b3b 1477 cbba 6536 aabb 5d7f ac3b
000003e0: e524 5cba 7808 c7b9 25ad d33b 79e4 e3ba
000003f0: 60bf 6338 2be2 7e3b f2ea 55bc cdb4 463c

lstm.bias_ih_l0 f4 [512]
0.026169766 0.003759823 0.107472844 0.044362575 0.05588548 0.10302765 0.023854662 0.041428294
0.05678241 0.057214215 0.08177685 0.07999251 0.01635842 -0.009041791 0.04731087 0.022600299
0.016834527 0.01791694 0.075936995 0.086889766 0.04153493 0.054030452 0.10704995 0.06694602
0.08058342 0.0961837 0.03381639 0.06737977 -0.006712272 0.029351879 0.030914048 0.042488113
0.050796565 0.0029702927 0.011666918 -0.032755174 0.06260658 -0.013385061 0.035126757 0.047374
0.07712945 -0.013543916 0.06968779 0.031391 0.124201894 0.036688674 0.050275486 0.03729806
0.0030566931 0.02585046 0.027810058 0.044707417 0.06781427 0.013350005 0.019763907 0.007998068
0.03065219 0.035248548 0.018495256 0.07407407 0.16895129 0.090311795 0.020179644 0.07402181
0.036478184 0.0789691 0.061835412 0.045614302 0.05955701 0.024819303 0.053965103 0.06853186
0.12010794 0.022284646 0.069652654 0.012183001 0.037693877 0.03459903 0.010185489 0.08168553
0.049985368 0.023075152 0.11726795 0.08164897 0.037376057 0.060212698 0.0765451 0.115787275
0.011606968 0.115219265 0.015616911 0.09231945 0.09704783 0.034285847 -0.0050238078 -0.007710601
-0.017087974 0.024884744 0.0417687 0.013666488 0.03217502 0.18062066 0.1401763 0.02975411
0.035209227 0.056248024 0.16038129 0.070176035 0.012334232 0.11799671 0.082054086 0.12238543
0.046485197 0.024645189 0.031294003 0.026881324 0.039532736 -0.004924732 0.12933253 0.08652641
-0.018359689 0.07733492 0.074574396 0.085387744 0.006571738 0.051893357 0.0471762 0.17374887
0.016855024 -0.0046468237 0.07961532 0.016787691 -0.058845222 0.07807602 -0.01122414 -0.015914327
0.07883068 0.0025138818 0.018773602 0.08662785 0.03286974 -0.00483398 0.06313894 -0.008315154
-0.028368235 0.009926812 0.056979615 -0.025977146 0.045932375 0.010270785 -0.06883245 -0.012660002
0.009118289 0.028375903 0.0049571455 -0.04266506 -0.037869852 0.055766527 0.010501426 0.027323667
0.039976746 0.02884465 0.032841977 0.05179182 0.024796506 -0.03244013 0.027400225 0.026942508
0.08123964 -0.07440315 0.013976697 0.018765258 0.0042556026 0.11866327 0.028261043 0.02242458
0.004131842 0.029659016 0.01580583 0.017780295 0.0347176 -0.023815675 -0.01843382 0.00089728157
0.017363256 0.020216947 0.02821748 -0.04384613 -0.030946733 0.04199365 0.011399235 0.02677301
0.021854715 0.010251873 0.012765286 -0.0017626078 -0.007964356 0.04602801 0.02794473 0.010406917
-0.03764062 0.043252066 -0.008134996 0.0064582024 0.021053802 -0.029182563 0.02509184 -0.02486711
0.09673249 0.014167605 0.108683586 -0.027042799 0.031911217 -0.033330753 0.019465612 0.028922617
-0.023872748 0.13167028 0.010812205 0.05990624 -0.016411135 0.039986826 0.09523371 0.028520703
0.049282078 0.053087376 -0.040037464 -0.05241706 0.020989206 -0.014376342 0.08555981 -0.022126533
0.034416754 -0.018208994 0.055399008 0.030007284 -0.010920768 0.029837986 -0.01978574 0.057701785
0.008658676 0.015427151 0.07094707 0.040661987 0.058333777 0.0041724774 -0.00039755792 0.03457343
0.011752514 -0.046188664 -0.04974948 0.07990375 -0.03283718 0.014603218 -0.031480715 0.051224876
00000000: fa61 d63c 5d67 763b b91a dc3d 88b5 353d
00000010: 2ce8 643d 2900 d33d da6a c33c b7b0 293d
00000020: ac94 683d 7459 6a3d 9f7a a73d 1dd3 a33d
00000030: 1802 863c 0524 14bc 0bc9 413d 4324 b93c
00000040: 90e8 893c 8cc6 923c db84 9b3d 43f3 b13d
00000050: 8820 2a3d 094f 5d3d 013d db3d ff1a 893d
00000060: ec08 a53d f6fb c43d 0e83 0a3d 68fe 893d
00000070: 9ef2 dbbb 5a73 f03c 753f fd3c 0408 2e3d
00000080: 0f10 503d 3ea9 423b 9a26 3f3c 4a2a 06bd
00000090: e137 803d 044d 5bbc 13e1 0f3d 3d0b 423d
000000a0: 0cf6 9d3d 4de7 5dbc 79b8 8e3d d993 003d
000000b0: 905d fe3d dd46 163d abed 4d3d dac5 183d
000000c0: cd52 483b 58c4 d33c ebd1 e33c 201f 373d
000000d0: 35e2 8a3d fbb9 5a3c ebe7 a13c 540a 033c
000000e0: 4d1a fb3c c860 103d 5d83 973c 25b4 973d
000000f0: 9101 2d3e 64f5 b83d c84f a53c bf98 973d
00000100: 266a 153d 8dba a13d 2147 7d3d 10d6 3a3d
00000110: 0df2 733d da51 cb3c 830a 5d3d 6f5a 8c3d
00000120: 27fb f53d 4a8e b63c 0da6 8e3d 369b 473c
00000130: e564 1a3d b6b7 0d3d 0ae1 263c be4a a73d
00000140: 75bd 4c3d 1a08 bd3c 2e2a f03d 9337 a73d
00000150: a317 193d 97a1 763d adc3 9c3d e121 ed3d
00000160: 272b 3e3c 14f8 eb3d 13de 7f3c fb11 bd3d
00000170: 03c1 c63d 516f 0c3d c19e a4bb 36a9 fcbb
00000180: 14fc 8bbc 17db cb3c a815 2b3d 68e9 5f3c
00000190: f4c9 033d 9ff4 383e 608a 0f3e e4be f33c
000001a0: 8d37 103d 5464 663d fe3a 243e 74b8 8f3d
000001b0: 8515 4a3c 42a8 f13d f90b a83d 36a5 fa3d
000001c0: 4367 3e3d b5e4 c93c 242e 003d 3936 dc3c
000001d0: 14ed 213d a55f a1bb bf6f 043e c234 b13d
000001e0: 0f67 96bc c561 9e3d 76ba 983d c5df ae3d
000001f0: bc57 d73b 218e 543d d53b 413d 39eb 313e
00000200: 8c13 8a3c 6244 98bb 5b0d a33d 5786 893c
00000210: b007 71bd 52e6 9f3d 75e5 37bc c35e 82bc
00000220: fb71 a13d f0bf 243b 19cb 993c f169 b13d
00000230: 6ca2 063d 5d66 9ebb fd4e 813d 493c 08bc
00000240: 8064 e8bc 11a4 223c 7563 693d 06ce d4bc
00000250: 9623 3c3d cb46 283c 07f8 8cbd e66b 4fbc
00000260: e064 153c 9574 e83c 8d6f a23b 8fc1 2ebd
00000270: 6b1d 1bbd 716b 643d 2c0e 2c3c e2d5 df3c
00000280: a8be 233d 9e4b ec3c 4f85 063d a923 543d
00000290: 0b22 cb3c f1df 04bd 7076 e03c 89b6 dc3c
000002a0: f860 a63d ae60 98bd 84fe 643c 99b9 993c
000002b0: 9572 8b3b ba05 f33d b483 e73c c1b3 b73c
000002c0: 6764 873b 77f7 f23c 3a7b 813c fba7 913c
000002d0: 0b34 0e3d 1719 c3bc 8602 97bc 8c37 6b3a
000002e0: 633d 8e3c 039e a53c 5828 e73c 0098 33bd
000002f0: 0184 fdbc 8901 2c3d dbc3 3a3c 1253 db3c
00000300: a908 b33c 79f7 273c 7d25 513c 4e07 e7ba
00000310: ee7c 02bc de87 3c3d 59ec e43c c681 2a3c
00000320: 0d2d 1abd 1429 313d a548 05bc 549f d33b
00000330: 0679 ac3c 4510 efbc 678d cd3c 1cb6 cbbc
00000340: af1b c63d 3e1f 683c 8095 de3d dc88 ddbc
00000350: 56b5 023d d485 08bd 5976 9f3c 20ef ec3c
00000360: c890 c3bc 93d4 063e ad25 313c 3f60 753d
00000370: a570 86bc 3ac9 233d e409 c33d 40a4 e93c
00000380: 01dc 493d 2672 593d 53fe 23bd 45b3 56bd
00000390: 8ef1 ab3c c08a 6bbc fb39 af3d b442 b5bc
000003a0: 95f8 0c3d 072b 95bc 12ea 623d d6d1 f53c
000003b0: 05ed 32bc cb6e f43c b415 a2bc b558 6c3d
000003c0: 1fdd 0d3c 29c2 7c3c b34c 913d 2f8d 263d
000003d0: 66ef 6e3d 47b9 883b 526f d0b9 de9c 0d3d
000003e0: 9e8d 403c 5330 3dbd 1cc6 4bbd 94a4 a33d
000003f0: 4780 06bd 5642 6f3c ecf1 00bd 2dd1 513d

lstm.bias_hh_l0 f4 [512]
0.029934313 -0.00037779938 0.0712694 0.04227847 0.048020758 0.1385634 0.029987564 0.044665713
0.061490845 0.0526686 0.06790916 0.087498136 0.009327028 0.013036262 0.05144563 0.03317664
0.013230504 0.042776547 0.08827829 0.08546559 0.048196424 0.05465961 0.085133776 0.07237599
0.079768345 0.13992293 0.033279747 0.06571849 -0.014334004 0.013596693 0.013366658 0.053747565
0.038210962 -0.0059237983 0.012745351 -0.038658794 0.067200676 -0.014666639 0.023058608 0.019308515
0.08489459 -0.026929468 0.09993292 0.015109636 0.12983285 0.06958893 0.05031209 0.035320017
0.013611949 0.022080561 0.041643992 0.043831956 0.06751754 0.02947194 0.02327238 0.021942977
0.0485641 0.062304437 0.0035672428 0.04052159 0.12264158 0.05674144 0.004024314 0.0745694
0.052460134 0.059776474 0.05115233 0.049496274 0.036201674 0.024473581 0.07878517 0.057259277
0.10922084 0.022281295 0.027256548 -0.004451535 0.033734977 0.027998744 0.012423432 0.088217676
0.060837127 0.002662023 0.09872854 0.077153355 0.029146522 0.05424745 0.07318842 0.07188378
0.005576589 0.10266381 0.013453831 0.06557431 0.07911934 0.04659833 0.046513937 -0.00075519545
-0.016563961 0.03236406 0.04055874 0.024523979 0.014830624 0.16648611 0.1481202 0.0478737
0.04254415 0.06367914 0.15161422 0.07236399 -0.0026968338 0.10650711 0.09532635 0.12062654
0.048516143 0.025123095 0.03945867 0.03007712 0.032126423 -0.006100982 0.12113245 0.07132184
-0.021213153 0.083133206 0.08050378 0.098134734 -0.0007332673 0.04419717 0.035038747 0.19081663
-0.009359222 -0.0016182252 0.03243884 -0.00046940142 0.006520093 -0.0014078666 -0.03414885 0.021261102
0.07632099 0.026001982 0.0422375 0.09634107 -0.022583235 0.03631672 0.028451296 0.01399586
-0.045549013 0.018587912 0.04417619 0.009459413 0.05629709 -0.012826251 0.04206341 0.008466631
0.02007657 0.07241845 0.027417049 -0.0012809534 0.021135598 -0.015517656 0.053146858 0.039301515
0.02833718 0.053192955 0.059895568 0.070351645 0.0544548 0.016441092 0.025011785 0.015604549
0.096063115 -0.07539943 0.08433927 -0.007839966 0.09769273 0.12186544 0.017062308 -0.013884016
-0.025999364 0.036452368 0.054327358 0.055501007 0.098878786 -0.032963008 0.019175056 -0.019831607
0.007705759 -0.026994685 0.012470076 -0.0462213 0.029501356 0.05404646 -0.0073652593 0.058459926
-0.0058453903 0.010768242 0.036825255 0.016026363 0.067474425 0.0038192412 0.029861936 0.03843992
-0.06925161 0.010471724 -0.059030116 0.022821272 -0.0004335055 -0.006987889 0.0008231591 -0.041925907
0.02994744 0.0162903 0.042448174 7.52553e-05 0.039020978 -0.018844811 0.0905948 0.060872998
-0.056817397 0.13162056 0.009265878 0.1225248 0.036659002 0.06722368 0.040813044 -0.05236454
0.014106225 0.08283939 -0.01585962 -0.033053152 0.07018437 -0.018622193 0.063522406 -0.02609969
0.081347644 -0.03636938 0.06899993 -0.0004132508 0.015515116 0.015669772 -0.013668961 -0.011198553
0.014308879 0.024666734 0.054733723 0.018602682 0.035503246 0.01611111 0.04799249 -0.0013451489
0.056647968 -0.020649998 -0.017470812 0.06193662 -0.02022129 0.018773647 0.02491449 0.050313704
00000000: ce38 f53c 6013 c6b9 b1f5 913d 302c 2d3d
00000010: 6ab1 443d 90e3 0d3e 7ba8 f53c 65f3 363d
00000020: d3dd 7b3d 08bb 573d f513 8b3d 3932 b33d
00000030: 64d0 183c 0c96 553c a7b8 523d 3ae4 073d
00000040: c1c4 583c 7636 2f3d 40cb b43d 9508 af3d
00000050: 9d69 453d c1e2 5f3d 9e5a ae3d dd39 943d
00000060: 965d a33d f547 0f3e 5850 083d 6a97 863d
00000070: 2cd9 6abc aac4 5e3c d4ff 5a3c 6826 5c3d
00000080: 1983 1c3d 6c1c c2bb e0d1 503c af58 1ebd
00000090: 82a0 893d 584c 70bc 68e5 bc3c e42c 9e3c
000000a0: 37dd ad3d 309b dcbc a1a9 cc3d 688e 773c
000000b0: e7f2 043e a484 8e3d 0d14 4e3d b9ab 103d
000000c0: a704 5f3c 4be2 b43c e492 2a3d 2389 333d
000000d0: a346 8a3d 236f f13c b8a5 be3c c2c1 b33c
000000e0: 26eb 463d f032 7f3d 67c8 693b f7f9 253d
000000f0: 822b fb3d b669 683d 65de 833b d7b7 983d
00000100: 70e0 563d 2dd8 743d 1b85 513d 9bbc 4a3d
00000110: 3548 143d d27c c83c 1f5a a13d b488 6a3d
00000120: 2daf df3d 4387 b63c 2049 df3c 2fde 91bb
00000130: b02d 0a3d 9f5d e53c a78b 4b3c 78ab b43d
00000140: 5a30 793d 5675 2e3b 3032 ca3d 9402 9e3d
00000150: b0c4 ee3c 9332 5e3d cfe3 953d ce37 933d
00000160: d2bb b63b 6741 d23d 756d 5c3c d34b 863d
00000170: 5209 a23d e4dd 3e3d 6685 3e3d 4ff8 45ba
00000180: 25b1 87bc 2d90 043d ec20 263d 83e6 c83c
00000190: 25fc 723c 567b 2a3e d2ac 173e 3617 443d
000001a0: c642 2e3d 356a 823d c240 1b3e 9233 943d
000001b0: 5dbd 30bb 6620 da3d 763a c33d 0c0b f73d
000001c0: ddb8 463d f3ce cd3c 6a9f 213d 4b64 f63c
000001d0: ff96 033d bfea c7bb 4a14 f83d 2f11 923d
000001e0: 35c7 adbc be41 aa3d 2adf a43d ddfa c83d
000001f0: bc38 40ba 1708 353d ca84 0f3d 6f65 433e
00000200: 6c57 19bc a11a d4ba 97de 043d fe19 f6b9
00000210: 81a6 d53b 2a88 b8ba aadf 0bbd c32b ae3c
00000220: 2e4e 9c3d 1c02 d53c 3b01 2d3d 784e c53d
00000230: 7a00 b9bc d7c0 143d b112 e93c e44e 653c
00000240: 9a91 3abd ad45 983c 18f2 343d a7fb 1a3c
00000250: c797 663d 3225 52bc af4a 2c3d a0b7 0a3c
00000260: 9e77 a43c 2050 943d b899 e03c aae5 a7ba
00000270: 9024 ad3c c43d 7ebc 85b0 593d a0fa 203d
00000280: 6023 e83c dbe0 593d 0e55 753d 8614 903d
00000290: ff0b 5f3d 78af 863c 84e5 cc3c 39aa 7f3c
000002a0: bdbc c43d 046b 9abd 11ba ac3d 3373 00bc
000002b0: 2013 c83d 9694 f93d 41c6 8b3c c979 63bc
000002c0: 9efc d4bc 144f 153d 5d86 5e3d 0655 633d
000002d0: f680 ca3d 3804 07bd 0215 9d3c e575 a2bc
000002e0: 9780 fc3b f523 ddbc 4a4f 4c3c 8c52 3dbd
000002f0: d4ac f13c d25f 5d3d 4658 f1bb ad73 6f3d
00000300: b08a bfbb 486d 303c 14d6 163d b849 833c
00000310: 0830 8a3d 3c4c 7a3b 05a1 f43c 2d73 1d3d
00000320: cad3 8dbd 9891 2b3c 90c9 71bd adf3 ba3c
00000330: 2048 e3b9 a9fa e4bb 46c9 573a 80ba 2bbd
00000340: 5554 f53c 3c73 853c 23de 2d3d 62d2 9d38
00000350: 76d4 1f3d 6f60 9abc c489 b93d f755 793d
00000360: 5cb9 68bd 8ac7 063e e9cf 173c 48ee fa3d
00000370: c027 163d 92ac 893d 942b 273d 337c 56bd
00000380: cc1d 673c b3a7 a93d 09ec 81bc be62 07bd
00000390: d3bc 8f3d 928d 98bc 0918 823d 04cf d5bc
000003a0: 9899 a63d 0ff8 14bd d64f 8d3d 95a9 d8b9
000003b0: 1d33 7e3c e55d 803c c7f3 5fbc 237a 37bc
000003c0: ca6f 6a3c e411 ca3c 7830 603d a764 983c
000003d0: da6b 113d 72fb 833c c693 443d b54f b0ba
000003e0: b307 683d 2f2a a9bc f31e 8fbc 41b1 7d3d
000003f0: 1ea7 a5bc 31cb 993c 7919 cc3c be15 4e3d

lstm.weight_ih_l1 f4 [512, 128]
0.040569406 0.007292532 -0.09989725 -0.035779584 0.0009592572 -0.040760577 -0.04923834 -0.055042926
-0.005093363 -0.17616037 -0.010888608 0.050354514 0.028592005 -0.011183407 0.05722354 -0.050813545
0.059788518 0.010843456 0.035431165 0.06301095 -0.0023077058 0.028615313 0.044530094 -0.055969484
-0.04219158 -0.047055192 -0.0017114325 -0.044776794 -0.034916822 0.077607274 -0.028130975 0.040499326
-0.0418899 -0.021417534 -0.019732647 0.047816027 -0.020740919 0.010595628 -0.040288266 -0.055960514
-0.045025878 0.030425765 -0.11095345 -2.2772445e-05 0.050730247 0.11331008 0.06460976 -0.0065858257
-0.10190926 -0.02193927 0.046371028 0.05251063 0.0929416 -0.0476557 0.0071607116 -0.08669311
0.036850993 -0.04171331 -0.032295648 -0.053202435 0.052993912 -0.003961539 -0.02609497 -0.140502
-0.0051386645 0.036849372 0.036379535 0.08352015 0.039240636 0.024295574 0.060758937 -0.018957378
0.0806439 0.051966798 -0.04692147 -0.006807054 -0.055838883 -0.031888716 0.044761553 -0.044546306
0.08263532 -0.02319441 0.053508874 -0.011289855 -0.016845146 0.005399531 -0.00016823938 0.08274042
0.03894316 -0.0064990623 0.013150135 0.052072965 -0.0006513113 0.007223984 -0.14580701 -0.025451563
-0.050442502 0.06634939 -0.10714901 0.01814439 0.014152202 0.03753684 6.79656e-05 0.030614128
0.038416415 -0.009171965 -0.08177984 -0.00083063147 0.0140688205 0.0043417243 -0.06578749 0.012341503
-0.026923126 -0.03640767 0.053236656 -0.0163092 -0.070846915 -0.02095733 -0.010303265 0.021333082
0.017969646 -0.10655005 -0.016211677 -0.0062293746 -0.0030536249 0.06638876 0.09589805 -0.05587232
-0.00020557287 0.027424945 -0.0192003 -0.043617994 -0.035313345 0.0035271465 -0.013694844 0.051578928
0.028098747 -0.03909852 0.009332617 -0.018364271 -0.054403953 -0.0066712145 -0.0176026 0.01916295
0.030287173 0.06443066 0.08672931 -0.009419809 0.0036559966 -0.051666874 -0.038880583 0.032510858
-0.039644275 0.026347656 -0.03126802 0.07964917 0.023565061 0.014424044 0.1353204 -0.05379268
-0.018994683 -0.0774735 0.044622086 -0.028697517 0.0041227317 -0.0401123 0.04967686 -0.02280807
0.06459597 -0.03941451 -0.00049453974 -0.02864793 0.022741523 0.005146662 -0.017147228 -0.018492287
-0.0067582843 -0.024439624 0.08391325 0.047906656 0.017483184 0.050295424 -0.07003323 0.00836392
0.0059601795 -0.015660314 0.012301515 0.034030415 0.003901252 -0.059084706 0.02368176 -0.06121435
0.01801579 -0.016935907 -0.05645589 0.04284444 0.050304104 -0.013706527 0.0019715836 0.0050992416
0.06152189 0.0077902176 -0.013271131 0.06557717 -0.0065948805 -0.045358896 0.019409638 0.021116123
-0.04321168 -0.0088637415 0.03588343 -0.035591558 0.016670883 0.04220832 -0.017006578 -0.03156573
0.0010515952 -0.03441452 0.010292094 0.03789359 -0.045065943 -0.028801894 -0.024373332 -0.026341021
-0.050703723 -0.02965373 0.0030960299 -0.036723334 0.034841318 0.03878799 -0.060549192 0.051322233
7.762815e-05 -0.02198328 -0.06781238 0.031762164 0.051922936 0.0153525425 -0.009685908 0.0009888255
-0.035994016 0.009045236 -0.041555967 0.024967762 -0.075244784 -0.0173609 -0.022322146 0.019432008
0.078908026 -0.06403407 -0.008149475 -0.01795031 0.018512368 0.04902555 0.05564746 -0.03097923
00000000: 1b2c 263d 31f6 ee3b ee96 ccbd 9d8d 12bd
00000010: a976 7b3a 90f4 26bd 24ae 49bd b174 61bd
00000020: 3ae6 a6bb 6263 34be 2266 32bc 8940 4e3d
00000030: c839 ea3c 9c3a 37bc 3b63 6a3d dd21 50bd
00000040: cee4 743d c0a8 313c 4520 113d e30b 813d
00000050: e13c 17bb a96a ea3c 3065 363d 4240 65bd
00000060: 14d1 2cbd f2bc 40bd 2552 e0ba df67 37bd
00000070: f104 0fbd 90f0 9e3d ee72 e6bc 9fe2 253d
00000080: be94 2bbd d373 afbc 5ca6 a1bc bdda 433d
00000090: dce8 a9bc 4999 2d3c 4f05 25bd da36 65bd
000000a0: 0e6d 38bd 743f f93c 903b e3bd 7407 bfb7
000000b0: 85ca 4f3d 1d0f e83d 1f52 843d e9cd d7bb
000000c0: cdb5 d0bd fcb9 b3bc 8cef 3d3d 6315 573d
000000d0: 2a58 be3d a032 43bd 67a4 ea3b 288c b1bd
000000e0: 11f1 163d 93db 2abd 7148 04bd ccea 59bd
000000f0: 2510 593d cccf 81bb 1ec5 d5bc c2df 0fbe
00000100: 3e62 a8bb 5eef 163d b502 153d 9d0c ab3d
00000110: caba 203d 8307 c73c 5dde 783d 814c 9bbc
00000120: a128 a53d 23db 543d ba30 40bd b50d dfbb
00000130: 50b7 64bd be9d 02bd e457 373d 3076 36bd
00000140: b53c a93d 3402 bebc 1f2c 5b3d 16f9 38bc
00000150: d5fe 89bc 8dee b03b 6a69 30b9 cf73 a93d
00000160: dd82 1f3d 16f6 d4bb aa73 573c 764a 553d
00000170: c3bc 2aba 2cb7 ec3b 6f4e 15be cc7f d0bc
00000180: cc9c 4ebd 30e2 873d f170 dbbd 8ba3 943c
00000190: a3de 673c 3bc0 193d c188 8e38 7bca fa3c
000001a0: 885a 1d3d 0246 16bc 307c a7bd bcbe 59ba
000001b0: e980 663c 0645 8e3b 97bb 86bd 0434 4a3c
000001c0: e38d dcbc 3520 15bd ae0e 5a3d df9a 85bc
000001d0: 3018 91bd b5ae abbc 07cf 28bc b7c2 ae3c
000001e0: 1435 933c ea36 dabd 5ace 84bc c81f ccbb
000001f0: 531f 48bb d5f6 873d 3266 c43d 60da 64bd
00000200: 0c8f 57b9 47aa e03c f349 9dbc c8a8 32bd
00000210: baa4 10bd b327 673b 5760 60bc 6d44 533d
00000220: 582f e63c c525 20bd d5e7 183c ab70 96bc
00000230: aed6 5ebd 349a dabb 5433 90bc 9efb 9c3c
00000240: ce1c f83c 39f4 833d 239f b13d 8b55 1abc
00000250: 7299 6f3b a5a0 53bd 3f41 1fbd 1b2a 053d
00000260: 0962 22bd 0ad7 d73c e512 00bd 1b1f a33d
00000270: 840b c13c d352 6c3c 6e91 0a3e b755 5cbd
00000280: bd9a 9bbc 6daa 9ebd a6c5 363d 0e17 ebbc
00000290: fb17 873b cc4c 24bd f779 4b3d fdd7 babc
000002a0: e44a 843d 1c71 21bd 00a4 01ba 10af eabc
000002b0: 6e4c ba3c 54a5 a83b 5878 8cbc 237d 97bc
000002c0: 9974 ddbb 9b35 c8bc b6da ab3d c539 443d
000002d0: e538 8f3c 9302 4e3d 956d 8fbd d308 093c
000002e0: 9c4d c33b 0f4a 80bc 4b8c 493c 7a63 0b3d
000002f0: 26ac 7f3b ce02 72bd 4000 c23c e6bb 7abd
00000300: da95 933c 2cbd 8abc 4b3e 67bd a77d 2f3d
00000310: ad0b 4e3d 5791 60bc af35 013b 8a17 a73b
00000320: 61fe 7b3d 1545 ff3b 286f 59bc 534d 863d
00000330: de19 d8bb 40ca 39bd f600 9f3c b8fb ac3c
00000340: bbfe 30bd 3a39 11bc 81fa 123d 74c8 11bd
00000350: 6091 883c a2e2 2c3d 6151 8bbc 114b 01bd
00000360: aed5 893a 3df6 0cbd 2ca0 283c 4f36 1b3d
00000370: 1197 38bd f3f1 ebbc 95aa c7bc 20c9 d7bc
00000380: b5ae 4fbd 61ec f2bc c3e6 4a3b 356b 16bd
00000390: c5b5 0e3d 28e0 1e3d 6e02 78bd 4337 523d
000003a0: 4ccc a238 4816 b4bc 38e1 8abd 0b19 023d
000003b0: 25ad 543d 3b89 7b3c a5b1 1ebc 7a9b 813a
000003c0: 766e 13bd 7832 143c 9736 2abd 3189 cc3c
000003d0: f019 9abd 7238 8ebc efdc b6bc e02f 9f3c
000003e0: 889a a13d 4b24 83bd 6085 05bc 870c 93bc
000003f0: 40a7 973c 04cf 483d 97ee 633d 27c8 fdbc

lstm.weight_hh_l1 f4 [512, 128]
0.1255396 -0.053648338 -0.009936567 0.02663072 -0.038426135 -0.10018987 -0.045290273 0.028893957
-0.00701423 -0.011839276 0.08434971 -0.086089045 0.040494867 0.04441527 -0.091607414 0.024336651
-0.019734243 -0.070383444 -0.07796985 -0.046103872 0.026184991 0.09573642 -0.021418292 0.07781482
0.09646943 -0.029894864 -0.022655472 0.034910236 0.023685725 0.093750276 0.051361915 -0.010267579
-0.094919875 -0.068482295 0.0010544852 0.11329647 -0.020838762 0.043417413 0.04516801 -0.036451574
0.041078728 -0.083638206 -0.0055150376 0.006980776 -0.117139176 -0.009972301 0.06530477 0.020648804
-0.028625622 0.0031355452 -0.015226132 -0.04554175 0.01065436 -0.058373976 -0.020790821 -0.17611629
0.05863129 -0.0686198 -0.005464988 0.053349566 0.061643463 0.055548754 -0.021660093 -0.008480256
0.029252516 0.024618799 0.073320016 0.08840775 0.053865906 -0.062944755 0.026943574 -0.12891787
-0.014536303 0.08046751 -0.0328572 0.109246805 0.13029546 0.024202125 -0.021422867 0.007272102
0.104763635 0.01981871 0.023882363 0.06330829 -0.02942953 0.018956278 0.036058336 0.05316188
-0.017152103 -0.07899344 -0.056344714 -0.007818926 0.043564677 0.030402105 0.11191466 0.011621379
-0.05082519 0.0036997234 -0.052178614 0.0007241752 -0.07545838 0.04499657 -0.044662606 0.07789109
0.011504674 0.018998964 -0.16115047 0.033400595 0.08927364 0.08676579 0.045322325 -0.006584068
-0.001673363 -0.0028815486 -0.013416049 0.021327754 0.010037079 0.0124664605 0.08853459 -0.025718316
0.08956289 0.074198 0.06711373 0.039515957 -0.011162859 0.03269101 -0.028553026 0.098334976
0.016596721 -0.0047657937 0.010900204 -0.013618353 0.053919427 0.027885105 -0.021331642 -0.016959386
-0.02138212 -0.007085266 0.01492286 -0.042437382 0.056969475 -0.025676712 0.050159827 -0.028018948
-0.024201604 0.047340788 0.029688941 0.0022536602 -0.055436734 0.023776336 0.061252475 -0.0025418093
0.03248778 0.029335998 0.018561728 0.048402917 -0.047434125 0.0056044552 -0.04060038 -0.0074675498
0.10221256 0.07027211 -0.06860821 0.027107595 0.021176515 -0.015543637 -0.04344835 0.0018468414
0.0074036256 0.012189193 -0.054625627 -0.06458101 0.003126306 -0.027526775 0.0025851752 0.0007992218
0.012278562 0.07079143 0.029782068 -0.010743177 -0.004657407 0.0093331905 -0.00815345 -0.03471827
-0.043293487 -0.0013522037 0.038207263 -0.040600177 0.051264428 0.016025014 0.023007413 0.02728144
-0.04558659 0.021133153 -0.018143283 -0.0020887149 0.012014402 -0.009534407 0.032557454 -0.025235219
0.010284634 -0.03081276 0.023709625 0.014690457 0.0391248 0.033986658 0.022951944 -0.031417385
0.007932937 -0.06267886 0.020729199 -0.039479267 0.008573124 0.014044387 -0.0070232046 0.0102194175
0.009850999 -0.026123626 -0.01583506 -0.0058367196 -0.03248582 -0.026858836 -0.017100098 -0.018117664
-0.010055989 0.012104392 0.023034547 0.049218748 -0.044792693 0.074222565 -0.0030456888 0.06273764
-0.048866805 0.0076007214 -0.014181874 0.032839302 0.016941253 0.028087607 0.00023313973 0.026926067
0.021944687 0.009767072 0.008324643 -0.022483906 -0.04667511 0.054878224 0.033042 0.026131695
-0.06719471 -0.028533988 0.0006435569 0.0456752 -0.01755703 0.050417766 -0.036024485 0.026480343
00000000: 748d 003e 5cbe 5bbd fccc 22bc ab28 da3c
00000010: b964 1dbd 5930 cdbd 4b82 39bd 05b3 ec3c
00000020: a0d7 e5bb 86f9 41bc 8abf ac3d 744f b0bd
00000030: f2dd 253d c9ec 353d ab9c bbbd a85d c73c
00000040: b5a9 a1bc 3225 90bd a8ae 9fbd 6ad7 3cbd
00000050: e881 d63c 7511 c43d 6a75 afbc 605d 9f3d
00000060: c491 c53d 13e6 f4bc f897 b9bc 09fe 0e3d
00000070: 9108 c23c 2500 c03d df60 523d 5939 28bc
00000080: 5a65 c2bd 7240 8cbd a736 8a3a fb07 e83d
00000090: 0db6 aabc 75d6 313d 1702 393d 3f4e 15bd
000000a0: 2b42 283d 824a abbd 7db7 b4bb febe e43b
000000b0: aae6 efbd dd62 23bc 82be 853d ae27 a93c
000000c0: 4880 eabc b87d 4d3b 0777 79bc fc89 3abd
000000d0: a08f 2e3c 8d19 6fbd 8351 aabc d457 34be
000000e0: 5d27 703d 8a88 8cbd a413 b3bb 1385 5a3d
000000f0: db7d 7c3d 1787 633d 8270 b1bc c6f0 0abc
00000100: f9a2 ef3c 5dad c93c ce28 963d 1f0f b53d
00000110: 7fa2 5c3d 2ee9 80bd c5b8 dc3c 0c03 04be
00000120: ac29 6ebc 26cc a43d 4595 06bd cabc df3d
00000130: 2c6c 053e 8943 c63c 027f afbc d04a ee3b
00000140: 518e d63d d95a a23c f2a4 c33c c7a7 813d
00000150: 3316 f1bc 324a 9b3c e8b1 133d 45c0 593d
00000160: 9182 8cbc 50c7 a1bd b7c9 66bd f41a 00bc
00000170: e070 323d d60d f93c 8333 e53d 9967 3e3c
00000180: 132e 50bd 0f77 723b 3eb9 55bd 93d6 3d3a
00000190: ec89 9abd 534e 383d 23f0 36bd 5d85 9f3d
000001a0: 1a7e 3c3c b7a3 9b3c a104 25be 10cf 083d
000001b0: 19d5 b63d 43b2 b13d e7a3 393d 2abf d7bb
000001c0: bf54 dbba 5dd8 3cbb fdce 5bbc 8bb7 ae3c
000001d0: 9072 243c 2040 4c3c a051 b53d 38af d2bc
000001e0: c06c b73d 1ff5 973d ec72 893d 7cdb 213d
000001f0: 6de4 36bc 02e7 053d 09e8 e9bc d963 c93d
00000200: d9f5 873c 602a 9cbb c596 323c 831f 5fbc
00000210: 9eda 5c3d 4e6f e43c b2bf aebc 69ee 8abc
00000220: 8e29 afbc 852b e8bb 037f 743c d2d2 2dbd
00000230: d358 693d f857 d2bc 6474 4d3d fe87 e5bc
00000240: 7142 c6bc 6ae8 413d 3936 f33c 25b2 133b
00000250: a111 63bd 97c6 c23c e0e3 7a3d 7c94 26bb
00000260: e811 053d 0c52 f03c c40e 983c 2342 463d
00000270: 494a 42bd 94a5 b73b 964c 26bd 59b2 f4bb
00000280: d254 d13d d3ea 8f3d 7682 8cbd bf10 de3c
00000290: 5f7a ad3c bdaa 7ebc e6f6 31bd b711 f23a
000002a0: 1d9a f23b 2eb5 473c 1fbf 5fbd 0c43 84bd
000002b0: b6e2 4c3b d57f e1bc 0b6c 293b de82 513a
000002c0: 062c 493c 19fb 903d 86f9 f33c 2604 30bc
000002d0: 299d 98bb 3dea 183c 0c96 05bc bf34 0ebd
000002e0: 8354 31bd 6d3c b1ba 387f 1c3d 5f4c 26bd
000002f0: a6fa 513d e446 833c 0b7a bc3c 547d df3c
00000300: 01b9 3abd 6f1f ad3c 39a1 94bc d2e2 08bb
00000310: 0ed8 443c 3436 1cbc f75a 053d 17ba cebc
00000320: e280 283c 0b6b fcbc b03a c23c 3eb0 703c
00000330: 5441 203d 9835 0b3d b705 bc3c 84af 00bd
00000340: 26f9 013c c65d 80bd 48d0 a93c 03b5 21bd
00000350: 4a76 0c3c 6e1a 663c e922 e6bb 586f 273c
00000360: 1666 213c 3701 d6bc 87b8 81bc f441 bfbb
00000370: da0f 05bd 1007 dcbc 8115 8cbc 7f6b 94bc
00000380: e0c1 24bc 8051 463c f2b2 bc3c 9999 493d
00000390: 8b78 37bd 0002 983d 2e9a 47bb 987c 803d
000003a0: 8f28 48bd 790f f93b 175b 68bc 8182 063d
000003b0: 62c8 8a3c fb17 e63c f876 7439 0e94 dc3c
000003c0: 58c5 b33c 1206 203c 1564 083c 2b30 b8bc
000003d0: 662e 3fbd fdc7 603d 0c57 073d 2312 d63c
000003e0: 619d 89bd 1cc0 e9bc 5fb4 283a eb15 3b3d
000003f0: c3d3 8fbc dc82 4e3d 698e 13bd 4eed d83c

lstm.bias_ih_l1 f4 [512]
-0.053693842 0.03208552 -0.027642181 0.047904775 -0.013380408 -0.0070291297 -0.06199619 0.033334382
0.051640414 0.03180719 0.064627886 -0.018438332 0.020833995 -0.050160125 -0.095383756 -0.016924705
0.004507985 0.03235915 -0.023576872 0.01329873 4.7610083e-06 -0.030478366 0.041291986 0.052725706
0.04213522 -0.01934837 0.04321623 0.0036347983 0.009906672 0.06500111 -0.0003229942 0.009139429
-0.08129915 0.03577756 0.033296876 0.0445558 0.017357832 0.026916364 0.04327002 0.018037247
0.021192884 0.049892884 -0.044494692 -0.010527769 0.055151608 0.03364893 0.03772795 -0.033048797
-0.00064683374 -0.0052462164 0.03439552 0.034487378 0.040595468 0.03673098 0.0006605163 0.011029647
-0.0064832936 0.14084756 0.07716899 0.052883204 -0.038115744 0.018900443 0.028920619 -0.07525266
0.036693938 -0.03252083 0.016768891 0.021614453 0.060544267 0.06383689 0.029569797 0.04022994
0.02671717 -0.010821336 -0.034962565 -0.0037892181 -0.02782288 0.04214704 0.021825217 0.050225616
0.0401996 -0.014113952 0.015837848 -0.0017126875 -0.053212363 0.021434918 -0.02957321 -0.008442541
-0.0033721495 0.056294322 0.010707775 0.026647704 0.034288257 0.017872637 0.020215632 -0.008858182
0.040226497 0.031094594 0.009312715 -0.003988561 -0.0043843146 0.020884681 0.032912027 0.048941478
0.0016757062 -0.0023245902 -0.007434624 0.051734924 -0.012251889 0.052232146 0.0073000416 -0.040079474
-0.020411538 -0.0349283 -0.04480516 -0.02991259 0.05474996 0.009646756 -0.002083182 -0.025525086
0.08572399 -0.013521376 0.057654224 -0.02894303 -0.028169926 -0.007601217 -0.00031716307 0.061071966
0.02997732 0.10717809 0.11840183 0.14168927 0.02289807 0.11319925 0.025162805 -0.015979785
0.07720904 0.010186525 0.10644129 0.00063829205 0.03681119 0.1261856 0.050425306 0.10198531
0.050032437 0.10057292 0.04453067 0.026774319 0.03048634 0.049295053 0.03433054 0.14021075
-0.007255104 0.091291144 0.04255915 0.02579957 0.16417882 0.050237052 0.07353583 0.031269282
0.20603432 -0.008481841 0.11184753 -0.0043785325 0.017112417 0.07230378 0.014813285 -0.027407743
0.022426639 0.07475817 0.021162447 0.008472255 0.07555085 0.08081424 0.062494893 0.062959075
0.032589223 0.040651087 -0.026585605 -0.006138586 -0.01677418 0.06976314 0.08647276 0.032056037
0.05683602 0.062545255 0.03175651 0.16990167 0.021831682 0.043291766 0.09305378 0.13017532
0.016815672 0.0064206035 0.04512542 0.09234556 0.0346736 0.10871378 0.13144933 0.16526385
-0.0015847723 0.08937009 0.02179116 0.03961145 0.045592364 0.030346692 0.11869921 0.04649539
0.048776593 -0.046505824 0.07610192 0.03580648 0.0067408234 0.042727225 0.07240086 -0.007456105
0.16090505 -0.0008679587 0.10013401 0.04382673 0.014755711 0.16952144 0.018250104 0.046305466
0.05611059 0.044080406 -0.0042203586 0.040264007 0.10592147 0.020050287 0.016430307 0.07406205
0.02710291 -0.013931493 0.042330973 0.084843986 0.06321185 0.044564325 0.010708782 0.053181026
0.08406126 0.07285614 0.032806188 -0.046203345 -0.02364124 0.036802765 0.11635875 0.060925763
0.04310763 -0.032003168 0.11845851 0.17514567 -0.04438229 0.038547643 0.030118065 0.07346432
00000000: 13ee 5bbd 1b6c 033d db71 e2bc cc37 443d
00000010: 8039 5bbc 9d54 e6bb b8ef 7dbd a289 083d
00000020: e684 533d 4248 023d a05b 843d fc0b 97bc
00000030: 0eac aa3c b474 4dbd 8f58 c3bd aea5 8abc
00000040: b8b7 933b 078b 043d 4924 c1bc ebe2 593c
00000050: c0c0 9f36 c4ad f9bc c921 293d e9f6 573d
00000060: fb95 2c3d 7980 9ebc 8003 313d cc35 6e3b
00000070: 984f 223c 4d1f 853d 8c57 a9b9 8bbd 153c
00000080: 2b80 a6bd 7e8b 123d 4e62 083d 2480 363d
00000090: 0332 8e3c b57f dc3c e83b 313d d9c2 933c
000000a0: b39c ad3c 7b5c 4c3d 1140 36bd aa7c 2cbc
000000b0: a7e6 613d 76d3 093d 9f88 1a3d 2d5e 07bd
000000c0: 4790 29ba 74e8 abbb 51e2 0c3d a342 0d3d
000000d0: 6f47 263d 3973 163d 8026 2d3a b1b5 343c
000000e0: cf71 d4bb 583a 103e c70a 9e3d 0f9c 583d
000000f0: 411f 1cbd 1ad5 9a3c efea ec3c 111e 9abd
00000100: 624c 163d 9034 05bd ea5e 893c cb10 b13c
00000110: 44fd 773d eabc 823d 5c3c f23c 26c8 243d
00000120: f7dd da3c f94b 31bc e834 0fbd 8854 78bb
00000130: cfec e3bc 60a2 2c3d ccca b23c 60b9 4d3d
00000140: 56a8 243d 353e 67bc 60be 813c 427c e0ba
00000150: 35f5 59bd 4898 af3c 8443 f2bc 9552 0abc
00000160: 48ff 5cbb e094 663d aa6f 2f3c 494c da3c
00000170: d871 0c3d a369 923c 419b a53c e821 11bc
00000180: 8ac4 243d 17ba fe3c 5c94 183c 7ab2 82bb
00000190: 4caa 8fbb 5a16 ab3c c3ce 063d dc76 483d
000001a0: 5fa3 db3a 2758 18bb 259e f3bb 00e8 533d
000001b0: 26bc 48bc 60f1 553d 3035 ef3b 602a 24bd
000001c0: 1936 a7bc fa10 0fbd 9e85 37bd 3f0b f5bc
000001d0: 7e41 603d 6d0d 1e3c ff85 08bb fc19 d1bc
000001e0: 0f90 af3d c388 5dbc d626 6c3d ef19 edbc
000001f0: 9ec4 e6bc a113 f9bb e848 a6b9 9926 7a3d
00000200: ff92 f53c 3080 db3d a97c f23d fe16 113e
00000210: bc94 bb3c 02d5 e73d 3a22 ce3c 0ae8 82bc
00000220: c61f 9e3d 62e5 263c e4fd d93d 0e53 273a
00000230: 55c7 163d cc36 013e c48a 4e3d addd d03d
00000240: d0ee 4c3d 2df9 cd3d cb65 363d d155 db3c
00000250: 7dbe f93c 9ce9 493d 2e9e 0c3d 6893 0f3e
00000260: 39bc edbb daf6 ba3d 8152 2e3d 9f59 d33c
00000270: 7e1e 283e 5ec5 4d3d f499 963d 3814 003d
00000280: a9fa 523e 6bf7 0abc 5110 e53d cb79 8fbb
00000290: 572f 8c3c 0114 943d 6cb3 723c 3486 e0bc
000002a0: 12b8 b73c d01a 993d de5c ad3c 37cf 0a3c
000002b0: 67ba 9a3d f081 a53d a5fa 7f3d b0f0 803d
000002c0: 477c 053d c181 263d 0eca d9bc 3126 c9bb
000002d0: 016a 89bc fadf 8e3d a118 b13d 314d 033d
000002e0: e3cc 683d ba17 803d 1d13 023d b4fa 2d3e
000002f0: 5bd8 b23c b552 313d fb92 be3d ae4c 053e
00000300: 05c1 893c ed63 d23b 6fd5 383d ab1f bd3d
00000310: e805 0e3d 55a5 de3d a79a 063e ed3a 293e
00000320: 22b8 cfba aa07 b73d 6083 b23c 9e3f 223d
00000330: 0fbf 3a3d a099 f83c 9218 f33d f371 3e3d
00000340: f7c9 473d e47c 3ebd 53db 9b3d d1a9 123d
00000350: 20e2 dc3b be02 2f3d e746 943d 5852 f4bb
00000360: 4bc4 243e b987 63ba 0f13 cd3d a883 333d
00000370: f0c1 713c 0797 2d3e 3e81 953c cdaa 3d3d
00000380: 38d4 653d a88d 343d ef4a 8abb dfeb 243d
00000390: 5bed d83d 8040 a43c da98 863c d8ad 973d
000003a0: ec06 de3c eb40 64bc 3e63 2d3d afc2 ad3d
000003b0: 3775 813d 1589 363d e373 2f3c 59d4 593d
000003c0: 4f28 ac3d 9a35 953d c85f 063d b83f 3dbd
000003d0: 46ab c1bc 7fbe 163d 7f4d ee3d 4b8d 793d
000003e0: a091 303d c115 03bd 609a f23d 6359 333e
000003f0: 34ca 35bd 22e4 1d3d 29ba f63c 7674 963d
