models/best_model_fold_1.pt (torch, 864423 bytes, 14 tensors)

lstm.weight_ih_l0 f4 [512, 28]
0	0x3bce2b15	0.006291757
1	0xb9bc4907	-0.00035912564
2	0x3ba17a1f	0.004927888
3	0xbca6e000	-0.020370483
4	0xbd0c807b	-0.034302216
5	0x3d04946a	0.0323681
6	0x3d45e332	0.048312373
7	0x3d0a7e23	0.0338117
8	0x3c865212	0.016396556
9	0xbd9c5b26	-0.07634573
10	0x3dc2d278	0.095128
11	0xbd5003c9	-0.05078486
12	0x3d81d7cf	0.0633999
13	0xbcc66454	-0.024217762
14	0xbbf50ef8	-0.007478591
15	0x3d9cd147	0.07657104
16	0xbd017b61	-0.031611804
17	0xbd83b188	-0.06430346
18	0x3bd09847	0.006365809
19	0xbd164a30	-0.036691844
20	0xbd48e252	-0.04904396
21	0x3c886f08	0.016654506
22	0x3d9a0880	0.075211525
23	0x3d993737	0.074812345
24	0x3dac66dc	0.08418056
25	0x3bd94448	0.006630454
26	0xbc84503b	-0.016151538
27	0x3a7e77a6	0.000970716
28	0xbb36f826	-0.0027918904
29	0xbba3bd25	-0.004996913
30	0x3ac4613f	0.0014982595
31	0xbcdd2d15	-0.026999036
32	0x3dbb0070	0.09130943
33	0xbbba8f80	-0.005693376
34	0xbd94430f	-0.07239353
35	0xbdb9515e	-0.09048723
36	0xbc94599e	-0.018109139
37	0xbdb8dd94	-0.09026638
38	0xbd88abb0	-0.06673372
39	0xbd2e7dc0	-0.042600393
40	0xbe1e4356	-0.15455374
41	0x3d317547	0.043324735
42	0xbd585aa4	-0.052820817
43	0xbd198e1c	-0.03748904
44	0x3d127907	0.035759952
45	0xbc353576	-0.011060109
46	0x3d63f496	0.055653177
47	0xbd512a8a	-0.05106596
48	0x3dab9dfd	0.08379743
49	0x3c8466a8	0.016162232
50	0x3ca8bb62	0.020597164
51	0xbd6e48ea	-0.058175005
52	0xbdda00ba	-0.1064467
53	0x3d5d4451	0.05402023
54	0xbd344ee5	-0.044020552
55	0x3a94f6a6	0.0011365011
56	0xb93fb376	-0.00018282034
57	0x3c6f6a0c	0.014612686
58	0x3d812b07	0.06307035
59	0xbbe649f1	-0.0070278575
60	0xbd85c74c	-0.065321535
61	0xbdab86ca	-0.08375318
62	0xbd614843	-0.055000555
63	0x3cc8f143	0.024529105
64	0xbd0b4304	-0.033999458
65	0x3bcc7c80	0.0062404275
66	0xbb6803ce	-0.0035402658
67	0xbd84bc54	-0.06481233
68	0x3d18a04f	0.037262257
69	0x3d120b63	0.03565539
70	0x3d9b4800	0.07582092
71	0x3c8c7745	0.017146716
72	0x3dad7367	0.08469277
73	0x3dbf93b9	0.09354348
74	0x3d576c81	0.05259371
75	0x3dd85c51	0.10564483
76	0x3d203827	0.03911605
77	0xbc0973ac	-0.008389395
78	0x3db1d1bb	0.08682581
79	0xbd28cb91	-0.04120976
80	0xbd123004	-0.035690323
81	0x3c197066	0.009365177
82	0x3d130096	0.03588923
83	0x3a609a5f	0.0008567925
84	0x3b995e25	0.0046804124
85	0xbc0b56ae	-0.008504553
86	0xbd8221f2	-0.06354131
87	0x3d3ea7c8	0.046546727
88	0xbd2cc557	-0.042180385
89	0xbd9db52f	-0.07700574
90	0xbd18ad51	-0.037274662
91	0x3c84af60	0.016196907
92	0x3bad823a	0.005295065
93	0xbd2a3594	-0.041555002
94	0x3af820c9	0.0018930669
95	0xbd89b54d	-0.067240335
96	0x3d9190c7	0.07107692
97	0x3c955711	0.018229993
98	0xbdb9a728	-0.09065086
99	0xbd05e84c	-0.03269224
100	0xbd78004d	-0.06054716
101	0x3daf5a36	0.08562128
102	0xbd666f66	-0.05625858
103	0x3dcaf183	0.09909346
104	0x3dad5191	0.08462823
105	0xbc1313a3	-0.00897685
106	0xbd3b22da	-0.045687534
107	0xbd56938f	-0.052386817
108	0xbca4552a	-0.02006014
109	0xbdd0cb4c	-0.10195026
110	0xbd774c1a	-0.06037531
111	0x3c783b7c	0.015150901
112	0x381959c3	3.656164e-05
113	0x3a62630f	0.00086359767
114	0xbcd1b9cc	-0.02560129
115	0xbd65372a	-0.05596081
116	0xbd62744a	-0.055286683
117	0x3d1013ee	0.035175256
118	0x3d4fc6c4	0.050726667
119	0x3c6bc9f0	0.014391407
120	0xbce42a3d	-0.027852172
121	0xbcda0187	-0.026612056
122	0x3c71467b	0.0147262765
123	0x3ae57c41	0.0017508344
124	0xbd649a14	-0.055811003
125	0x3d013846	0.031547807
126	0xbd9fdea5	-0.07806138
127	0xbcfc559e	-0.030802544
128	0x3dbf58a0	0.09343076
129	0x3ccdf201	0.02513981
130	0x3d323f1a	0.04351721
131	0x3ded1c65	0.115776815
132	0x3d95ff1d	0.073240496
133	0xbbae9bb9	-0.005328622
134	0xbd184472	-0.03717465
135	0x3d3dbf18	0.04632482
136	0xbd5512da	-0.05201993
137	0xbc1b996b	-0.009497027
138	0xbc786a2b	-0.015162031
139	0xbc1b9abc	-0.009497341
140	0xb9a813c3	-0.0003205818
141	0x3b83cb24	0.004022019
142	0x3cdae57e	0.026720759
143	0xbb0a9c52	-0.0021150303
144	0xbd96470c	-0.0733777
145	0x3ce20c05	0.027593622
146	0xbd2a0913	-0.04151256
147	0x3d362a85	0.044474144
148	0x3d85e970	0.06538665
149	0x3d70bb63	0.058772456
150	0x3d66d29e	0.056353204
151	0x3cdbd2c4	0.0268339
152	0xbcd41a73	-0.025891518
153	0xbbba1d9a	-0.0056797983
154	0x3dad817e	0.08471964
155	0x3dc96db2	0.09835376
156	0x3d931a24	0.0718272
157	0x3d1fadf4	0.038984254
158	0xba5bdde6	-0.00083872525
159	0xbc7c3f21	-0.0153959105
160	0xbd4a36c1	-0.049368624
161	0xbd9528b1	-0.07283152
162	0xbd49abad	-0.04923599
163	0xbcc06107	-0.023483766
164	0xbd816869	-0.06318743
165	0x3cded458	0.027200863
166	0x3cf90ade	0.03040069
167	0x3bb066f4	0.0053833667
168	0x343e9d98	1.7752461e-07
169	0x384a191a	4.818393e-05
170	0xb8eecbf7	-0.00011386716
171	0xbd536363	-0.051608454
172	0xbd25f616	-0.04051789
173	0x3cbe5166	0.023232173
174	0x3d1ede55	0.03878625
175	0x3cab6741	0.020923259
176	0x3d9b1de6	0.07574062
177	0x3b3cae5b	0.0028790447
178	0x3cfd4933	0.030918693
179	0x3c01714c	0.007900547
180	0x3d90a6fb	0.07063099
181	0xbd87fe43	-0.066402934
182	0x3d6b2326	0.057406567
183	0x3dba3839	0.09092755
184	0x3b87e0e3	0.0041466816
185	0xbd51437d	-0.051089752
186	0x3cb7b0d0	0.022423178
187	0x3d215d11	0.039395396
188	0x3a3feb96	0.0007321177
189	0xbdd296cb	-0.10282668
190	0xbbaed183	-0.0053350343
191	0xbd0a2311	-0.03372485
192	0x3d3af44e	0.045643143
193	0x3c42beb6	0.011886289
194	0xb88f2c1b	-6.826987e-05
195	0xbc27c66b	-0.010240178
196	0x3696500d	4.4796675e-06
197	0x3b8c8810	0.004288681
198	0x3993b3f0	0.0002817209
199	0xbc98b5c2	-0.018641356
200	0x3d52c77d	0.051459778
201	0x3d207669	0.039175425
202	0x3c5c7889	0.013456472
203	0x3c7a409f	0.015274196
204	0x3ba4d7cc	0.005030608
205	0xbc8e16fe	-0.017344948
206	0xbdb2bf91	-0.08727945
207	0xbc828af6	-0.015935402
208	0xbd832da1	-0.064051874
209	0xbca47b3a	-0.02007829
210	0x3da41b77	0.08013051
211	0xba418d8c	-0.0007383458
212	0xbd9082a9	-0.070561714
213	0xbc30af72	-0.010784017
214	0xbda09e3f	-0.07842683
215	0xbd4e12dc	-0.050310954
216	0xbd7fd6d0	-0.06246072
217	0xbd543ce1	-0.05181587
218	0xbc3f5148	-0.011677094
219	0xbce6076c	-0.02807971
220	0x3c87a837	0.016559703
221	0x3d052c40	0.032512903
222	0xbcc41e50	-0.023940235
223	0xba31f0f5	-0.00067879196
224	0xbc1dd51c	-0.009633329
225	0xbc3c703e	-0.01150137
226	0x3ca1ee32	0.0197669
227	0xbd239cc6	-0.039944433
228	0xbd73d4bf	-0.059529062
229	0xbd8e5e17	-0.0695154
230	0xbd6efd42	-0.058346994
231	0xbd118655	-0.0355285
232	0xbd3254cd	-0.043537904
233	0x3d85b266	0.065281674
234	0x3d14fb97	0.036372747
235	0xbbec6bdf	-0.0072150077
236	0xbd486d4b	-0.048932355
237	0xbd52d3e7	-0.051471617
238	0xbcc8bebb	-0.02450501
239	0x3dd379b1	0.10325945
240	0x3a6045a6	0.00085553003
241	0x3d4744f2	0.048649736
242	0x3d5f58c5	0.054528017
243	0xbd01219e	-0.0315262
244	0xbd8e1cef	-0.069391124
245	0xbd0e91e5	-0.034807105
246	0x3c803925	0.015652249
247	0x3dc486a2	0.09595992
248	0xbaf4ca30	-0.0018675979
249	0xbce8db5d	-0.028424913
250	0xbc32837e	-0.010895608
251	0x3c9916f9	0.018687712
252	0x378c81e6	1.674979e-05
253	0x3921b923	0.00015423125
254	0x3c7624f6	0.015023461
255	0xbc0c7f52	-0.008575277

lstm.weight_hh_l0 f4 [512, 128]
0	0xbcf8d557	-0.030375166
1	0x3d2a2be1	0.041545752
2	0x3c148fa4	0.00906745
3	0x3d5f906a	0.054581083
4	0xbc7f5fd9	-0.015586817
5	0xbd6c3f29	-0.05767742
6	0x3b404f1e	0.0029344033
7	0x3c943dac	0.018095814
8	0xbcf0d626	-0.029398989
9	0xbc2324ed	-0.009957534
10	0x3bd72540	0.00656572
11	0x3ced4d6c	0.028967582
12	0x3d5ff22c	0.054674312
13	0xbc89838e	-0.016786363
14	0x3c24a59b	0.010049249
15	0x3d6a418e	0.057191424
16	0x3c6f90b6	0.014621904
17	0xbb5c8be6	-0.0033652722
18	0x3ce594bc	0.028025024
19	0x3c0dae1d	0.008647469
20	0x3c0f7395	0.008755584
21	0xbd613f95	-0.054992277
22	0xbd073170	-0.03300613
23	0x3d13caf9	0.03608224
24	0xbcc0f4eb	-0.023554286
25	0x3b43767b	0.0029825259
26	0xbd01efd8	-0.031722873
27	0xbcacec71	-0.021108838
28	0xbd08f2fc	-0.033434853
29	0xbd263942	-0.04058195
30	0xbd1ea6a8	-0.038733155
31	0xbb174c72	-0.0023086336
32	0x3b558657	0.0032581293
33	0xb9cac5c6	-0.00038675795
34	0x3c9b3a08	0.01894857
35	0x3d8adcba	0.067803815
36	0xb9884403	-0.00025990614
37	0xbb46ba7a	-0.003032355
38	0xbd4c396e	-0.049859457
39	0x3cd19793	0.025584972
40	0xbc66ae7f	-0.014079689
41	0xbb6d5d3e	-0.0036218907
42	0xbbc344ab	-0.0059591136
43	0x3b2c409c	0.0026283627
44	0xbcb26cb9	-0.021780359
45	0xbcbffc09	-0.02343561
46	0xbcf262f4	-0.0295882
47	0xbc0ba42e	-0.00852303
48	0xbd08374d	-0.033255864
49	0xbb819d37	-0.003955509
50	0x3c01a057	0.007911763
51	0xbc12d345	-0.008961503
52	0xbc105c04	-0.008811001
53	0xbc03bdb8	-0.008040838
54	0x3d127b12	0.0357619
55	0xbc2716e4	-0.010198329
56	0xbcce3c52	-0.025175247
57	0xbc1dccf9	-0.009631389
58	0xbced9660	-0.029002368
59	0xbc614e3f	-0.0137515655
60	0xbd0f9a69	-0.035059366
61	0x3d2ab46d	0.041675974
62	0xbc9b0c65	-0.018926809
63	0xbc6a5819	-0.014303231
64	0xbd3ced91	-0.046125
65	0xbcc018ad	-0.023449266
66	0x3c9d4e2a	0.01920231
67	0xbc1e6964	-0.009668682
68	0xbae73787	-0.001764045
69	0x3d418834	0.047249034
70	0x3d8bc235	0.068241514
71	0xbb6e6985	-0.0036378813
72	0x3cbf7b33	0.023374176
73	0x3be12492	0.0068708146
74	0xbd70ce39	-0.05879042
75	0xbb8b35bf	-0.0042483504
76	0x3a1d053b	0.0005989854
77	0xbd341fbb	-0.043975573
78	0xbd63653d	-0.05551647
79	0x3bd5f06d	0.006528905
80	0xbcc57df8	-0.024107918
81	0xbb1ff607	-0.0024408118
82	0xbade2d06	-0.0016950674
83	0x3c1e4aa0	0.009661347
84	0xbbe03049	-0.0068416935
85	0x3b64b2e4	0.0034896666
86	0xbc1dfc1e	-0.009642629
87	0x3cbff827	0.023433758
88	0x3d3da70b	0.046301883
89	0xbcc05f73	-0.023483014
90	0xb8e9e0f0	-0.00011152204
91	0x3c2e46f6	0.010637036
92	0x3ccca579	0.024981247
93	0x3c47d40d	0.012196553
94	0x3ca43dc4	0.020048983
95	0x3c2d9ce0	0.010596484
96	0xbc47735d	-0.012173501
97	0xb974e839	-0.00023356163
98	0xbd59794a	-0.053094186
99	0x3c25fd22	0.010131152
100	0x3c0a0556	0.008424124
101	0xbd39c08e	-0.04534965
102	0xbc60d6e7	-0.013723112
103	0x3ca6aedf	0.020347057
104	0xbbb09975	-0.0053893873
105	0x3d380770	0.044928968
106	0xbc7758dc	-0.015096869
107	0x3d4543b1	0.04816026
108	0x3ca8bc7a	0.020597685
109	0x3a18726c	0.000581539
110	0x3ce0d30b	0.027444383
111	0xbc885a81	-0.016644718
112	0xbd290989	-0.04126886
113	0x3c313516	0.010815879
114	0xbc322d14	-0.010875005
115	0x3cf0f852	0.029415283
116	0x3ca20a89	0.019780414
117	0xbb13e7db	-0.0022568617
118	0x3d4f38b9	0.050591204
119	0xbd075196	-0.03303679
120	0x3bf6ce70	0.0075319335
121	0x3c9a5429	0.018838959
122	0x3cb5b743	0.022182113
123	0xbc69e8c3	-0.014276686
124	0x3c3a21c2	0.011360588
125	0xbc550e42	-0.013003888
126	0xbd9a30a2	-0.07528807
127	0x394d6458	0.00019587704
128	0xbba3c56b	-0.0049978993
129	0x3c088627	0.008332766
130	0xbb25e7b0	-0.0025315098
131	0xbbdbea9f	-0.0067113186
132	0xbd2a808f	-0.04162651
133	0xbdb2f8b8	-0.087388456
134	0xbd79fc45	-0.0610316
135	0x39c70ee3	0.0003796733
136	0x3c910904	0.017704494
137	0x3d2b39f2	0.041803308
138	0x3c99f7c9	0.018794911
139	0xbd9f9304	-0.07791713
140	0xbcc69bd7	-0.024244232
141	0x3d271da4	0.040799752
142	0x3cba9c09	0.022779481
143	0x3d7b6103	0.061371814
144	0x3c89337e	0.016748186
145	0xbc322d03	-0.010874989
146	0x3d5bbd59	0.053647373
147	0x3d0f7cf1	0.035031263
148	0xbd9a70d4	-0.075410515
149	0xbcf275ed	-0.029597247
150	0xbc641ef0	-0.013923392
151	0xbd3d5dd5	-0.046232063
152	0xbd8baa6d	-0.068196155
153	0xbb83640d	-0.0040097297
154	0x3bb403ff	0.0054936404
155	0x3bddfb04	0.006774308
156	0xbdd3a1ea	-0.10333617
157	0xbd000da3	-0.031263005
158	0xbda63fce	-0.081176385
159	0x3ca54a28	0.020176962
160	0x3cdda4f0	0.027056187
161	0x3c432539	0.01191073
162	0x3d84a97f	0.06477641
163	0x3d4a4ac2	0.0493877
164	0x3d02548f	0.031818923
165	0xbd86998b	-0.06572255
166	0xbdbdc0c7	-0.09265285
167	0x3cbab707	0.022792352
168	0xbd55e19c	-0.05221711
169	0x3ccd6d17	0.025076432
170	0x3b1c0b3f	0.0023810414
171	0x3d6b859e	0.057500474
172	0x3d03b404	0.0321541
173	0xbd218f43	-0.039443266
174	0xbbb06982	-0.0053836713
175	0xbba97c68	-0.005172301
176	0xbce25b9e	-0.027631577
177	0xbbc3a8ff	-0.0059710736
178	0x3c10fb2b	0.008848946
179	0x3d2231e0	0.039598346
180	0x3cc49878	0.023998484
181	0xbbdb5501	-0.006693483
182	0x3ca07182	0.019585375
183	0x3af68906	0.0018809147
184	0xbb217042	-0.0024633561
185	0xbc61a6a7	-0.013772643
186	0xbc944147	-0.018097533
187	0x3d107574	0.035268262
188	0xbce55fcc	-0.027999781
189	0x3db9b4be	0.09067677
190	0xbce9abb5	-0.02852426
191	0xbc9eb28a	-0.019372243
192	0xbde026fc	-0.10944936
193	0xbccd7675	-0.025080899
194	0x3ce0535f	0.027383504
195	0x3cb0fe65	0.02160568
196	0xbce3efef	-0.02782437
197	0xbc5c94d2	-0.013463216
198	0x3d6a01ca	0.057130612
199	0xbbbb021a	-0.0057070376
200	0x3d1c8df1	0.038221303
201	0x3bcf4061	0.0063248132
202	0xbcd881b6	-0.026429038
203	0xbb5838c2	-0.0032992815
204	0x3da63677	0.08115857
205	0x3cf432bc	0.029809348
206	0xbdae7a40	-0.08519411
207	0xb9b24be6	-0.00034007354
208	0xbd9f4245	-0.07776312
209	0xbd36b022	-0.044601567
210	0x3c851e9a	0.016249944
211	0xbc32c043	-0.010910097
212	0xbd30e371	-0.043185655
213	0xbb2e771e	-0.0026621292
214	0xbdaf58e2	-0.08561875
215	0x3d4da3ae	0.050204925
216	0x3dd13ce8	0.10216695
217	0xbd3a2d63	-0.04545344
218	0xbc476293	-0.012169498
219	0xbcd338b2	-0.02578387
220	0x3c6bbc78	0.014388196
221	0x3bcb85d6	0.006211023
222	0x3cab831e	0.020936545
223	0xbb8b75cf	-0.0042559872
224	0xbc642c35	-0.013926555
225	0x3c4efc45	0.012633388
226	0xbb9117e5	-0.0044278973
227	0xba8aa56f	-0.0010577868
228	0xbd63c961	-0.05561197
229	0xbd83cd70	-0.064356685
230	0x3b26e318	0.0025464948
231	0x3ce5b1a8	0.028038815
232	0x3c6c5f60	0.014427036
233	0xbcaf1314	-0.021371402
234	0xbd76ec54	-0.060283974
235	0x3db10307	0.086431555
236	0x3d003620	0.031301618
237	0xbc336b38	-0.010950856
238	0x3d439855	0.047752697
239	0xbc964f10	-0.018348247
240	0xbdd435e9	-0.10361845
241	0xbad033e4	-0.0015884605
242	0x3d0db696	0.034597956
243	0x3c74cabd	0.014940915
244	0xbd24618e	-0.040132098
245	0x3c0ebbcd	0.008711767
246	0xbc90f904	-0.017696865
247	0x3d368363	0.044558894
248	0xbca16ede	-0.019706186
249	0x3d505f08	0.05087188
250	0x3d6ba71a	0.057532407
251	0x3c6d943f	0.014500677
252	0xba896122	-0.0010481218
253	0xbc5300ad	-0.012878579
254	0xbdafcc0a	-0.08583839
255	0xbc02ffd5	-0.007995565

lstm.bias_ih_l0 f4 [512]
0	0x3d4f0555	0.050542194
1	0x3dbb99f8	0.091602266
2	0x3d077b7c	0.03307675
3	0x3c3e5f10	0.011619344
4	0x3c41855e	0.011811582
5	0x3cfbf20d	0.030755067
6	0x3cf95ab3	0.030438757
7	0x3d0bb486	0.034107707
8	0x3db660da	0.08905192
9	0x3d78eca2	0.060772546
10	0x3d99e69b	0.07514688
11	0x3cb0d50f	0.02158597
12	0x3d730d00	0.05933857
13	0x3da369fe	0.07979201
14	0x3d3fa7c8	0.046790868
15	0x3c000116	0.007812759
16	0x3d69462b	0.056951683
17	0x3d85f7e0	0.06541419
18	0x3cfc857d	0.03082537
19	0x3ce68e67	0.028144075
20	0x3d4aaf06	0.04948332
21	0x3dd949c6	0.10609774
22	0x3c3054aa	0.010762373
23	0x3d50823d	0.050905455
24	0x3dc0eae7	0.09419804
25	0x3ce6ffcb	0.028198143
26	0x3c421753	0.011846381
27	0x3dcac691	0.09901155
28	0x3c42ab33	0.011881637
29	0x3d9519e1	0.07280327
30	0x3d9b625b	0.07587119
31	0x3d6a8305	0.057253856
32	0x3d664848	0.056221277
33	0x3d601941	0.054711584
34	0x3d0da14a	0.034577645
35	0x3d3ca2e2	0.046053775
36	0x3e0d7765	0.13815077
37	0x3dcf8dd7	0.10134476
38	0x3d63acb0	0.05558461
39	0x3cf2137a	0.029550303
40	0xbc15038b	-0.009095083
41	0xbc84eb23	-0.016225403
42	0x3d0b96a0	0.034079194
43	0x3db559ca	0.088550165
44	0x3db7b2f1	0.08969677
45	0x3cf5bbc7	0.029996766
46	0x3d59a14c	0.05313234
47	0x3b1f6698	0.0024322625
48	0x3d76fc6e	0.06029933
49	0x38755f3b	5.8501242e-05
50	0x3d835838	0.06413311
51	0x3dc67863	0.09690931
52	0x3d9d4cc5	0.07680658
53	0x3de4d935	0.111742415
54	0x3dbc1b58	0.09184903
55	0x3d2a0dce	0.04151707
56	0x3d832e38	0.064053
57	0x3dadc5c9	0.0848499
58	0x3ca75f49	0.020431178
59	0x3dd94b91	0.10610116
60	0x3c2728ac	0.010202568
61	0x3c23693c	0.00997382
62	0x3bc8c247	0.0061266753
63	0x3d925d7b	0.07146736
64	0x3d66f212	0.0563832
65	0x3d95c943	0.07313778
66	0x3d5dad1e	0.054120176
67	0x3d1785d8	0.036992878
68	0x3c6e54da	0.014546597
69	0x3cd97ced	0.026548827
70	0x3c34698e	0.011011494
71	0x3c742da0	0.014903456
72	0x3d9f809a	0.07788201
73	0xbc451de4	-0.012031052
74	0x3d490f19	0.049086664
75	0x3d48d7bd	0.04903387
76	0x3d86f537	0.0658974
77	0xbc061d7a	-0.008185739
78	0xbc7c1a7f	-0.015387177
79	0x3c35c133	0.011093426
80	0x3c06fba4	0.008238707
81	0xbcdc53ff	-0.026895521
82	0x3d3a0596	0.045415483
83	0x3a6db284	0.00090674334
84	0x3dba3cb2	0.09093608
85	0x3b8e25d8	0.0043380074
86	0xbcac7ac5	-0.021054635
87	0x3baab0b4	0.005209053
88	0x3cf5909f	0.029976187
89	0x3d7fd9a8	0.062463433
90	0x3dadef6b	0.08492931
91	0x3dcd2afd	0.10017965
92	0x3dba5438	0.09098095
93	0x3d1bf548	0.038075715
94	0x3d95fdd2	0.07323803
95	0x3b622452	0.0034506512
96	0x3cf8374f	0.03029981
97	0x3c90bde0	0.017668664
98	0x391eec2a	0.00015156032
99	0x3d5e0479	0.054203484
100	0x3d01fb9b	0.03173409
101	0x3d6e5a2d	0.058191467
102	0x3b7de01e	0.003873832
103	0xbc5491c5	-0.012974207
104	0x3b6b5f2e	0.0035914886
105	0x3d83aa2a	0.064289406
106	0x3da9dde4	0.082942754
107	0x3d3265b8	0.043554038
108	0x3d76b975	0.06023546
109	0x3d6cc4d5	0.0578049
110	0x3ce70e2b	0.028204998
111	0x3d5dd705	0.054160137
112	0x3c2e7e8a	0.010650286
113	0x3c726694	0.014794964
114	0x3ce1ad13	0.027548349
115	0x3d31d21d	0.04341327
116	0x3d4956b1	0.04915494
117	0x3da8090a	0.08204849
118	0x3caf20e4	0.021377988
119	0xbbd90e00	-0.0066239834
120	0x3d86f8bc	0.06590411
121	0x3c2cf111	0.010555522
122	0x3d359f84	0.04434158
123	0x3d8de1d1	0.06927837
124	0x3d8eb1e3	0.06967523
125	0x3d6d841a	0.05798731
126	0x3d340c18	0.043956846
127	0x3d75991e	0.059960477
128	0xbd11c386	-0.035586856
129	0x3cdb5b05	0.0267768
130	0x3c9448b0	0.018101066
131	0x3d92e960	0.07173419
132	0xbd8f2fb6	-0.06991522
133	0x3d863c5a	0.0655448
134	0xbd0ae124	-0.033906117
135	0x3d9eb54e	0.07749425
136	0xbd036819	-0.032081697
137	0xbcd41a96	-0.025891583
138	0x3de7d774	0.11320391
139	0xbcfebd50	-0.03109613
140	0xbd63326c	-0.055468008
141	0x3d2017d0	0.03908521
142	0xbb17a0ab	-0.0023136537
143	0xbcb63f9c	-0.022247128
144	0x3baaf8dd	0.005217655
145	0xbd1b45c1	-0.03790832
146	0xbd38f14c	-0.045151994
147	0xbc65fef2	-0.0140378345
148	0xbd6b38ef	-0.057427343
149	0x3da12220	0.07867837
150	0xbb194511	-0.0023387114
151	0x3d20e65d	0.03928219
152	0x3beb15b2	0.007174217
153	0x3ce796e7	0.028270198
154	0x3c0108ba	0.007875616
155	0x3d6022f8	0.05472085
156	0xbcbbbd67	-0.022917463
157	0xbd9aa405	-0.075508155
158	0xbca08060	-0.019592464
159	0x3b97f79c	0.0046376716
160	0x3d2b496f	0.04181808
161	0x3d8dbd16	0.06920831
162	0xbcfb87cf	-0.030704407
163	0x3c3aff66	0.011413431
164	0x3bedf190	0.0072614625
165	0xbd91fd86	-0.07128434
166	0x3daf6646	0.08564429
167	0x3cc7c4c8	0.024385825
168	0xbc815ec3	-0.015792256
169	0x3ce9fea8	0.028563812
170	0x3c809cf8	0.015699849
171	0x3d88b814	0.06675735
172	0x3c8fb810	0.017543823
173	0xbcd65462	-0.026163284
174	0xbcc220b7	-0.02369724
175	0x3c0457e7	0.008077598
176	0x3bb07d47	0.005386028
177	0x3c81a2cd	0.0158247
178	0xbb05d146	-0.0020418926
179	0x3d2fe77b	0.042945366
180	0x3d8f6b9e	0.07002948
181	0x3d4f1095	0.050552923
182	0x3bd229b8	0.0064136647
183	0x3d99a9d2	0.07503094
184	0x3d10cc5f	0.035351153
185	0xbbcf5f0a	-0.006328468
186	0x3d8c6a43	0.06856205
187	0xbd5c1161	-0.05372751
188	0x3dbc2c37	0.09188121
189	0x3db9604f	0.090515725
190	0x3b6d84ed	0.003624256
191	0x3d3bd8b7	0.045860972
192	0x3d2ba119	0.04190168
193	0xbd074ca7	-0.033032086
194	0xbd191e21	-0.03738225
195	0xbca36f9a	-0.019950677
196	0xbd0d716c	-0.034531996
197	0x3ca2bdb0	0.01986584
198	0xbd618589	-0.05505899
199	0xbaea9643	-0.0017897565
200	0x3bb7c92c	0.0056086984
201	0x3d10dc11	0.03536612
202	0xbd5321c2	-0.051545866
203	0x3d0aa081	0.033844475
204	0x3d803e3d	0.06261871
205	0xbd498d17	-0.04920682
206	0xbd32435f	-0.04352128
207	0x3c741059	0.014896476
208	0x3c0a3b14	0.008436937
209	0xbd1009f1	-0.03516573
210	0xbc8f1f99	-0.017471122
211	0x3d26ed16	0.040753447
212	0x3d5ca6d5	0.05387004
213	0x3ce06c3c	0.02739536
214	0x3da1f7f8	0.079086244
215	0x3c829e25	0.01594455
216	0x3c53c04c	0.012924265
217	0x3d1c7446	0.038196824
218	0x3d33c66a	0.043890394
219	0xbd762a13	-0.06009872
220	0xbb3f57ba	-0.0029196576
221	0x3d5bce35	0.05366345
222	0x3d146179	0.03622577
223	0xbca77f3f	-0.020446418
224	0xbd10106d	-0.035171915
225	0x3d104c24	0.035228863
226	0xbccc8e9b	-0.024970343
227	0x3dd9bbc6	0.10631518
228	0x3d8f4382	0.06995298
229	0x3dddba12	0.10826506
230	0x3dcbac0a	0.09944923
231	0xbc0c780b	-0.008573542
232	0x3c3840db	0.0112459315
233	0xbd279100	-0.040909767
234	0x3b87e5cb	0.0041472665
235	0x3d8a1669	0.06742556
236	0x3d49b899	0.04924831
237	0x3d10ca96	0.03534945
238	0x3ca251ce	0.019814398
239	0xbd4955b5	-0.049154002
240	0x3c6d63fd	0.014489171
241	0x3d1111cd	0.035417367
242	0xbcdb1a02	-0.0267458
243	0x3d7d6c57	0.0618709
244	0xbda2de03	-0.079525016
245	0x3d9679a1	0.073474176
246	0x3cf4ddc0	0.029890895
247	0x3dbd37bc	0.09239146
248	0x3d27bc49	0.040951047
249	0xbaf3c1e5	-0.0018597214
250	0x3c88ff81	0.016723396
251	0x3d6b432f	0.05743712
252	0x3cf7cb85	0.030248413
253	0xbcb9311b	-0.022606423
254	0x3cb97684	0.02263952
255	0xbd3d457a	-0.046208836

lstm.bias_hh_l0 f4 [512]
0	0x3d166b39	0.03672335
1	0xbc38858d	-0.01126231
2	0x3c99a59d	0.018755728
3	0x3dcc7262	0.09982754
4	0x3cd78569	0.026308732
5	0x3c2508a9	0.0100728655
6	0x3da58f91	0.08084024
7	0x3d71b4ff	0.059010502
8	0x3db6ee2c	0.089321464
9	0x3d3dc31b	0.046328645
10	0x3d9800ad	0.07422004
11	0xbce2b08d	-0.027672077
12	0x3d79cdcb	0.060987275
13	0x3d87d8c1	0.066331394
14	0x3d614eac	0.055006668
15	0xbc24f55a	-0.010068262
16	0x3d62636d	0.0552706
17	0xbc8118a7	-0.015758825
18	0x3d9e15fe	0.077190384
19	0x3c6b8855	0.014375766
20	0x3da41748	0.08012253
21	0x3d2be57b	0.041966897
22	0x3c2675e9	0.010159948
23	0x3d8eb529	0.06968147
24	0x3d764d98	0.060132593
25	0x3ca69c15	0.020338098
26	0x3d45f464	0.048328772
27	0x3dd406b4	0.10352841
28	0xbb099d3b	-0.0020998258
29	0x3db1c760	0.08680606
30	0x3dd929f2	0.106037036
31	0x3b5ec354	0.0033990936
32	0x3d83e28e	0.06439696
33	0x3da04d49	0.07827241
34	0xbbf326ef	-0.0074204127
35	0xbbb01c51	-0.0053744693
36	0x3d53a4a8	0.0516707
37	0x3d82cded	0.063869335
38	0x3cbafdef	0.022826163
39	0x3dcd6655	0.10029284
40	0x3d0e2ba4	0.034709588
41	0x3da05b13	0.07829871
42	0x3cf7f95b	0.03027027
43	0x3df92e2b	0.12167009
44	0x3d9872c6	0.07443766
45	0x3d26c546	0.04071548
46	0x3d0e19fa	0.034692742
47	0x3d113d71	0.035458986
48	0x3d056634	0.03256817
49	0x3d1f4bdd	0.03889071
50	0x3d3fe28e	0.04684692
51	0x3d0b4100	0.033997536
52	0x3cabca8a	0.020970602
53	0x3dc0c4c2	0.094125286
54	0x3dbe7661	0.09299923
55	0x3cb6dda5	0.022322485
56	0x3dad4c2f	0.084617965
57	0x3d5691bc	0.052385077
58	0x3c6ff526	0.01464585
59	0x3dcdb5ce	0.10044442
60	0x3d33f047	0.04393032
61	0xbb7e8ef8	-0.003884254
62	0x3d25cb55	0.040477116
63	0xbb97a90a	-0.0046283053
64	0x3d7669c3	0.060159456
65	0x3c38543c	0.011250552
66	0x3c16bb8e	0.00919999
67	0x3d591ca5	0.053005833
68	0x3d58222e	0.05276697
69	0x3c2761be	0.010216175
70	0x3b7ecb8a	0.0038878643
71	0x3d23ef47	0.040023115
72	0x3d927549	0.071512766
73	0x3dd61e73	0.104550265
74	0xbcdac8ab	-0.026707014
75	0x3d976a61	0.07393337
76	0x3d7852d7	0.060625877
77	0x3b1b20b3	0.0023670613
78	0xbd179fec	-0.037017748
79	0x3cba05eb	0.0227079
80	0xbcd1a49e	-0.02559119
81	0x3d5d054f	0.05396014
82	0x3d77cfb1	0.060500804
83	0xb9f00ab6	-0.00045784347
84	0x3d127056	0.035751663
85	0x3cd07952	0.025448475
86	0x3c916a21	0.017750802
87	0x3c96c157	0.018402738
88	0x3db0caea	0.08632453
89	0x3d10e2ee	0.035372667
90	0x3d553f67	0.05206242
91	0x3c97d568	0.018534377
92	0x3d8b4bd7	0.06801575
93	0x3d893e6d	0.0670136
94	0x3d70438b	0.058658164
95	0x3d9edd7d	0.07757089
96	0x3de3487c	0.1109781
97	0x3d4b7344	0.049670473
98	0x3d6ee156	0.058320366
99	0x3d9e26d8	0.077222526
100	0x3d28c3da	0.041202404
101	0xbd8c68ce	-0.068559274
102	0x3d84e193	0.06488337
103	0x3c22a773	0.009927618
104	0x3d92c6a3	0.07166793
105	0x3d9a7ad6	0.0754296
106	0xbb6432e4	-0.0034820372
107	0x3d9b8139	0.07593007
108	0x3cff95bd	0.03119933
109	0x3cfa7f0b	0.030578157
110	0x3d60b925	0.054864068
111	0x3d9c578e	0.07633887
112	0xbc58f6e8	-0.013242461
113	0x3cca6fe4	0.024711557
114	0x3d322266	0.043489836
115	0x3dc69dc1	0.09698058
116	0x3d472cdb	0.048626762
117	0x3debcd04	0.11513713
118	0x3d026712	0.031836577
119	0x3d5060d8	0.050873607
120	0x3d11eaf6	0.035624467
121	0x3ce7e053	0.028305208
122	0xbc73bfa6	-0.0148772355
123	0x3d00108f	0.03126579
124	0x3d407484	0.046986118
125	0x3dd1a043	0.102356456
126	0x3d804b6d	0.06264386
127	0x3c948133	0.018128013
128	0x3ad4a159	0.0016222402
129	0x3d8ed629	0.069744416
130	0xbd5f84cc	-0.054570004
131	0x3d3d244d	0.046177197
132	0xbd1f877d	-0.03894757
133	0x3d8687cd	0.06568871
134	0x3d11c9fa	0.03559301
135	0x3c0e1075	0.008670916
136	0x3c318600	0.010835171
137	0x3d53ead8	0.051737636
138	0xbc9791b5	-0.018502096
139	0x3d9c06ab	0.07618459
140	0x3ca7295b	0.020405462
141	0x3b38d0de	0.0028200666
142	0x3cea0a9e	0.028569516
143	0x3bce4d2f	0.006295822
144	0x3cc2dab1	0.02378592
145	0xbb58fa20	-0.003310807
146	0xbd00a564	-0.03140773
147	0x3ccfb9ec	0.02535721
148	0x3d9635a1	0.07334448
149	0x3d6a0093	0.057129454
150	0x3c0291b0	0.007969305
151	0xbd8c70b5	-0.06857435
152	0xbcb6ed80	-0.022330046
153	0xbce87a96	-0.028378766
154	0xbccd0359	-0.02502601
155	0x3d910040	0.07080126
156	0xbd1879ad	-0.037225414
157	0xbd153fb5	-0.03643771
158	0x3cd46eb2	0.02593169
159	0xbc759eb5	-0.014991452
160	0x3b067a28	0.0020519588
161	0x3cbe05ad	0.023196066
162	0x3c60a864	0.013712022
163	0x3d325f8b	0.043548148
164	0x3cc29860	0.023754299
165	0xbd9b0439	-0.07569165
166	0x3d689cea	0.05679027
167	0x3dcd7fc1	0.10034133
168	0xbcf5c562	-0.030001346
169	0xbd614fc4	-0.05500771
170	0xbc2b5795	-0.010457893
171	0x3e1a7be7	0.15086327
172	0xbcfd5ee2	-0.030929033
173	0x3c6f5195	0.014606853
174	0x3d0d4b3e	0.034495585
175	0x3d7a81ba	0.061158873
176	0xbc833d84	-0.016020544
177	0xbb2a48ea	-0.0025983402
178	0xbcf707b8	-0.030155048
179	0xbd3fbc8a	-0.046810664
180	0x3aad680c	0.0013229861
181	0x3c6a4464	0.014298532
182	0x3d7923f8	0.060825318
183	0xbc57231a	-0.013130927
184	0xbcec2b45	-0.028829226
185	0xbd267dda	-0.040647365
186	0x3cf362f4	0.02971027
187	0xbd71f500	-0.05907154
188	0x3dba65fb	0.091014825
189	0xbd31ee90	-0.0434404
190	0x3d35e819	0.0444108
191	0xbd268475	-0.040653665
192	0x3d924c38	0.07143444
193	0xbae66ec1	-0.0017580615
194	0x3cc88662	0.024478141
195	0x3d119324	0.035540715
196	0x3db06b7f	0.08614253
197	0x3d32c445	0.04364421
198	0x3d994824	0.07484463
199	0x3d235531	0.039876167
200	0x3dc70215	0.09717194
201	0xbc726fa7	-0.014797128
202	0xbda917b8	-0.08256477
203	0x3d92bd84	0.071650535
204	0xbcecd09f	-0.028908072
205	0xbc2474f0	-0.010037646
206	0x3d58a13d	0.052888144
207	0xbbe378c5	-0.006941887
208	0xbd2c5d06	-0.0420809
209	0x3c72e868	0.014825918
210	0xbcdc67cc	-0.026904963
211	0xbbc752af	-0.0060828547
212	0x3d4f11f6	0.05055424
213	0x3d4cd881	0.05001116
214	0x3cdc0702	0.02685881
215	0xbcbfa050	-0.023391873
216	0x3da40300	0.08008385
217	0xbdaa82e9	-0.083257504
218	0xbd1b8def	-0.037977155
219	0xbd7109e6	-0.05884733
220	0x3d32023d	0.043459166
221	0xbba84270	-0.005134873
222	0x3c8c6782	0.0171392
223	0x3d858355	0.0651919
224	0xbce570a4	-0.028007813
225	0xbd6e2ba8	-0.058147103
226	0x3d5eddd0	0.054410756
227	0x3cd77223	0.026299542
228	0x3d6c992c	0.057763264
229	0xbcb82c33	-0.022482013
230	0x3d88f937	0.06688159
231	0xbd3cd4d5	-0.04610141
232	0xbd1cdd54	-0.038297012
233	0xbb594357	-0.003315171
234	0x3db02e93	0.08602633
235	0x3d5e24e6	0.054234408
236	0xbcc74d6f	-0.024328915
237	0xbd938042	-0.072021976
238	0xbd1a64ba	-0.037693717
239	0xbd01d328	-0.031695515
240	0x3cfe45ba	0.031039108
241	0x3d752336	0.059848033
242	0x3d28f143	0.04124571
243	0x3d6dbd7f	0.058042046
244	0x3d4aa06e	0.049469404
245	0xbca08398	-0.019593999
246	0xb9c573c6	-0.00037661026
247	0x3d97bbc8	0.07408863
248	0x3c84d91a	0.016216803
249	0x3cdba015	0.026809731
250	0xbcfabe4f	-0.030608324
251	0x3c69c6a6	0.014268553
252	0xbd5b2c70	-0.053509176
253	0x3d20a219	0.03921709
254	0xbc79cd54	-0.015246708
255	0x3d4188e5	0.047249693

lstm.weight_ih_l1 f4 [512, 128]
0	0xbc96ecba	-0.018423427
1	0x3cd97da3	0.026549166
2	0xbce9aa58	-0.028523609
3	0xbd2229f9	-0.03959081
4	0xbd541f05	-0.051787395
5	0xbdbc032a	-0.09180291
6	0x3cef6a74	0.029225565
7	0x3d513d48	0.051083833
8	0x3cdf2a03	0.027241712
9	0x3c8072b6	0.015679698
10	0xb84bcd08	-4.858992e-05
11	0xbd0bb1f3	-0.034105252
12	0x3c1a285c	0.0094090365
13	0x3d75c6f0	0.060004175
14	0xbd32b68e	-0.04363113
15	0x3c5d1449	0.013493606
16	0x3d04bd2f	0.032406982
17	0xbd45cc75	-0.04829069
18	0x3d16d46d	0.03682368
19	0x3c8f026d	0.017457211
20	0x3b9cf7ab	0.0047902665
21	0x3ccad6ca	0.024760623
22	0xbc957e8d	-0.01824882
23	0xbcae8c37	-0.021307094
24	0xbc441173	-0.011967051
25	0x3b91d07f	0.0044499035
26	0xbc1f40e9	-0.009720066
27	0x3bc166c8	0.005902145
28	0x3d2b75d9	0.041860435
29	0xbd44919e	-0.047990434
30	0xbd21e4b1	-0.039524738
31	0xba13c7a7	-0.00056373555
32	0x3d79ce07	0.0609875
33	0x3c2dcedf	0.010608404
34	0xbd1bd28d	-0.038042594
35	0x3c46130e	0.012089504
36	0x38a087e3	7.6547054e-05
37	0x3d584be7	0.05280676
38	0x3d076489	0.033054862
39	0x3c92bd8c	0.017912649
40	0xbd0152f4	-0.03157325
41	0xbd41a732	-0.04727859
42	0xbd244aaa	-0.040110268
43	0x3c4d8f5b	0.012546386
44	0xbdc16a55	-0.09444109
45	0xbcc1481b	-0.023593953
46	0xbd45ee2b	-0.048322838
47	0xbb920f8c	-0.0044574197
48	0xbc41fba5	-0.011839782
49	0x3c889368	0.016671851
50	0xbbf29196	-0.007402609
51	0xbbcca0b1	-0.006244742
52	0x3d80f694	0.06297031
53	0x3caca517	0.021074815
54	0xbd91f357	-0.071264915
55	0xbb2b84c8	-0.0026171673
56	0x3d2f43e9	0.042789374
57	0xbbfe922a	-0.007768889
58	0xbd6c4005	-0.05767824
59	0x3d133cb1	0.03594655
60	0x3c834507	0.016024126
61	0xbc554e8b	-0.013019214
62	0x3cf0d247	0.029397143
63	0xbc92b79d	-0.01790982
64	0xbd59c29f	-0.05316412
65	0x3cadb04f	0.021202235
66	0x3b66775b	0.0035166356
67	0x3c0c93fd	0.008580205
68	0xbd199c46	-0.03750255
69	0x3dc6ed3d	0.09713218
70	0xbcb80e63	-0.022467798
71	0xbc458b56	-0.012057146
72	0x3d177d6d	0.03698485
73	0xbcedcc33	-0.029028034
74	0xbd5cb0fb	-0.05387972
75	0xbc47e70b	-0.012201081
76	0x3cdfb53d	0.0273081
77	0xbd457843	-0.048210394
78	0x3d5059e3	0.050866973
79	0xbd4d9a6b	-0.050196093
80	0xbca6fcda	-0.02038424
81	0xbd987ba1	-0.07445455
82	0x3da5038f	0.080573194
83	0xbd2656fe	-0.040610306
84	0xbcd375d4	-0.02581302
85	0x3be3c145	0.0069505298
86	0xbd222b0c	-0.039591834
87	0x3d2fb2b4	0.042895034
88	0x3c2f5278	0.010700814
89	0xbcfe515f	-0.03104466
90	0xbc9e9493	-0.019357955
91	0x3d57d505	0.052693386
92	0x3c310da5	0.010806476
93	0x3c73ffc5	0.014892523
94	0x3c9096f6	0.017650109
95	0x3c3d9c9b	0.011572982
96	0xbd1ba29c	-0.037996873
97	0xbd83513d	-0.06411979
98	0x3d09c394	0.033633783
99	0x3ce56b3f	0.02800524
100	0x3cffd955	0.031231562
101	0x3c950f80	0.018195868
102	0xbdbe7551	-0.0929972
103	0xbc13e5e1	-0.009026975
104	0xbc62d442	-0.0138445515
105	0x3cea69d3	0.028614914
106	0x3c1f056d	0.009705883
107	0xbd6249e4	-0.05524625
108	0xbbe2345c	-0.0069032144
109	0x3c75d33e	0.015003977
110	0x3ce4648c	0.027879976
111	0xbd696876	-0.056984387
112	0xbd0737d5	-0.03301223
113	0xbd1fb086	-0.038986705
114	0xbd0d1ae6	-0.03444948
115	0xbcdc8607	-0.026919378
116	0x3cef8785	0.029239425
117	0xbca4128b	-0.020028373
118	0xbd0e4309	-0.0347319
119	0xbcce1805	-0.025157938
120	0xbc98efb6	-0.01866899
121	0x3d733741	0.059378866
122	0x3d1aaec1	0.037764315
123	0xbc491693	-0.0122734485
124	0xbd5c618d	-0.05380397
125	0xbd36f0d5	-0.04466327
126	0x3cae8553	0.021303808
127	0x3d11cd41	0.035596136
128	0x3ce2e3a3	0.027696436
129	0x3dabcf99	0.083892055
130	0x3d4feee9	0.05076495
131	0x3dbbfe7c	0.091793984
132	0xbd3d4293	-0.04620607
133	0x3d029e8b	0.03188948
134	0x3d1b83f8	0.037967652
135	0xbccc5e90	-0.024947435
136	0x3ce57751	0.028010996
137	0xbc2f7978	-0.010710113
138	0x3d820577	0.063486986
139	0xbd31f767	-0.043448832
140	0x3d12f3a1	0.035876874
141	0xbd948542	-0.072519794
142	0x3cd25691	0.025676044
143	0x3d00f470	0.031483114
144	0x3d0636cf	0.032767113
145	0xbd67d425	-0.0565988
146	0xbca44d44	-0.020056374
147	0xbd595587	-0.05306008
148	0xbcbcaced	-0.023031676
149	0xbd561253	-0.05226357
150	0x3cd24b67	0.02567072
151	0xbd2736de	-0.04082381
152	0xbd908f3d	-0.070585705
153	0x3d0ac266	0.0338768
154	0x3ba3e0ab	0.0050011477
155	0xbc9e707e	-0.01934075
156	0x3d96be0e	0.07360469
157	0x3d106501	0.035252575
158	0x3c4bbb56	0.012434801
159	0x3d879421	0.0662005
160	0x3d495f65	0.04916324
161	0x3c1acf05	0.009448771
162	0xbd13cb13	-0.03608234
163	0x3d821347	0.06351333
164	0x3c7adb94	0.015311141
165	0xbc247d9d	-0.010039714
166	0x3c8fe7a6	0.017566513
167	0x3caad5e0	0.020853937
168	0xbd919ab6	-0.07109587
169	0x3d4d8d98	0.050183862
170	0xbd04a8f8	-0.032387704
171	0xbd35c385	-0.044375915
172	0x3c588c5c	0.013217058
173	0xbbee2426	-0.007267493
174	0x3cc3f2a0	0.023919404
175	0xbaff8901	-0.0019495786
176	0xbce8334c	-0.028344773
177	0xbc996b59	-0.018727945
178	0x3cc6462e	0.024203386
179	0x3d4872fc	0.048937783
180	0x3d38ddb9	0.045133326
181	0xbcb68b4a	-0.022283215
182	0x3be36092	0.0069390023
183	0xbbe81e0b	-0.0070836595
184	0x3d4890fa	0.048966385
185	0x3c592d97	0.013255498
186	0x3c1620ec	0.009163123
187	0xbd5feedf	-0.054671165
188	0x3c5f7d3a	0.013640696
189	0x3c34e93d	0.011041936
190	0x3d66dbc4	0.05636193
191	0x3d3ee06f	0.046600755
192	0x3ca2e311	0.019883664
193	0x3d2727dc	0.040809497
194	0xbd06bf9c	-0.032897577
195	0x3bee17d8	0.007266026
196	0x3ccb8b4f	0.024846701
197	0x3d6e1adb	0.05813108
198	0xbd8bf9b2	-0.06834735
199	0xbc600fba	-0.0136756245
200	0xbc496140	-0.012291253
201	0x3c8a666a	0.016894538
202	0x3c9a9c29	0.018873291
203	0x3c70e99d	0.014704135
204	0xbc9e4887	-0.019321693
205	0x3c981b8f	0.018567828
206	0xbd7aa9c0	-0.061197042
207	0xbd8761ea	-0.066104725
208	0xb98e7c5a	-0.00027177
209	0x3c722dbd	0.014781413
210	0x3c210185	0.009827022
211	0xbce16f27	-0.027518822
212	0xbd4b54f9	-0.049641583
213	0x3ce4235c	0.027848892
214	0x3c54a00d	0.012977612
215	0xbcf922dc	-0.03041213
216	0xbc41035f	-0.011780589
217	0xbd5b622e	-0.05356043
218	0xbcba8b5b	-0.022771528
219	0xbd47ccef	-0.048779424
220	0xbc3db506	-0.011578804
221	0x3d651199	0.055924986
222	0x3d0a04ec	0.0336961
223	0xbccf2ecf	-0.025290875
224	0xbc2bbd6f	-0.010482176
225	0x3c0f1e45	0.008735244
226	0xbc889c17	-0.016675992
227	0x3c148400	0.009064674
228	0xbd3cb130	-0.046067417
229	0x3ca42d4f	0.020041136
230	0x3cdd7b9d	0.027036482
231	0x3b8eaf30	0.00435438
232	0xb917baf6	-0.0001447013
233	0xbd69e97c	-0.057107434
234	0xbcfadda2	-0.03062326
235	0xbce4ca89	-0.027928608
236	0xbd129051	-0.035782162
237	0x3b109182	0.0022059386
238	0xbca093b4	-0.01960168
239	0x3cb71f6f	0.022353856
240	0x3cf3e0f7	0.029770358
241	0x3c49b0ee	0.01231025
242	0xbc359bc5	-0.011084502
243	0x3ca95376	0.02066968
244	0x3b991f21	0.0046729003
245	0x3d1fc162	0.039002784
246	0x3d2aa005	0.041656513
247	0xbd3b2137	-0.045685973
248	0x3c6ca275	0.01444303
249	0xbd1133ea	-0.0354499
250	0x3dffd9bf	0.12492704
251	0xbd655464	-0.055988684
252	0xbd55d23d	-0.052202452
253	0x3d65c2be	0.056093924
254	0xbd9100aa	-0.07080205
255	0x3d60a05d	0.054840434

lstm.weight_hh_l1 f4 [512, 128]
0	0xbd1413e9	-0.0361518
1	0x39805685	0.00024478525
2	0xbc9e97b8	-0.019359455
3	0xbcf1ebca	-0.029531378
4	0x3cbcec09	0.02306177
5	0x3d592821	0.053016786
6	0x3c58c232	0.0132298935
7	0x3d0b0250	0.033937752
8	0xbd076f0f	-0.033064898
9	0xbd208610	-0.039190352
10	0xb9acff81	-0.00032996762
11	0x3d217ec1	0.039427523
12	0x3cdf38b8	0.027248725
13	0xbcd2b99f	-0.025723277
14	0xbbcbbbee	-0.0062174713
15	0xbacb071c	-0.001548979
16	0x3d6e71f4	0.058214143
17	0x3ba9fc02	0.0051875124
18	0xbc9768e4	-0.018482633
19	0x3d174b19	0.036936853
20	0x3d2bf5c7	0.04198244
21	0x3d83d5c2	0.064372554
22	0x3d06f21d	0.03294574
23	0x3d6d8ceb	0.057995718
24	0x3c0c0ca3	0.008547935
25	0xb9f7fb57	-0.00047298774
26	0xbce56f42	-0.028007153
27	0x3d287a5d	0.04113232
28	0x3c3139b1	0.010816977
29	0x3c141243	0.009037557
30	0xbd13c2c0	-0.0360744
31	0x3d966f3f	0.07345437
32	0x3c5b0009	0.013366708
33	0x3d492b2d	0.04911344
34	0x3d43ae99	0.04777393
35	0xbc81c21f	-0.015839634
36	0xbbaa1760	-0.005190775
37	0x3c040c4e	0.008059574
38	0xbc38f507	-0.011288888
39	0x3d84f25b	0.06491538
40	0xbc493fd3	-0.012283283
41	0x3c68c006	0.014205938
42	0xbd0bb5dc	-0.03410898
43	0x3cc75965	0.024334619
44	0xbd4e52b8	-0.050371855
45	0xbd4d9e85	-0.050200004
46	0x3da7de01	0.08196641
47	0x3d2be17c	0.041963086
48	0xbd8b164a	-0.06791361
49	0x3c92143b	0.017831912
50	0xbcd8a073	-0.026443696
51	0x3d456e4a	0.048200883
52	0xbd2b12f4	-0.041766122
53	0x3cc3e47c	0.02391266
54	0xbc2b496f	-0.01045452
55	0xbbfeffd3	-0.0077819615
56	0x3cb29d46	0.02180351
57	0xbba5ccd4	-0.005059818
58	0xbb9d5ee3	-0.004802571
59	0x3b7d6aec	0.0038668467
60	0x3d770bbf	0.060313936
61	0x3d20fc35	0.039303023
62	0xbce3505b	-0.027748277
63	0xbd257bca	-0.040401258
64	0x3d1b146e	0.03786128
65	0x3c0512e4	0.00812218
66	0xbd25be1e	-0.040464513
67	0x3d24711e	0.04014694
68	0x3ce6c664	0.028170772
69	0x3dac21ec	0.084049076
70	0xbc4ae49b	-0.012383605
71	0xbc8db48c	-0.017298006
72	0xbb63b9a5	-0.0034748104
73	0xbd299aba	-0.041407324
74	0xbd395a68	-0.045252234
75	0x3d8cc3af	0.06873261
76	0x3c4b18b6	0.012396028
77	0xbc871be2	-0.016492788
78	0xbd4b9f8c	-0.049712703
79	0xbb99d2ef	-0.0046943347
80	0x3c9d5c34	0.019209005
81	0xbcc6777c	-0.024226896
82	0x3bb23b35	0.005439187
83	0x3bfe1d58	0.007754963
84	0x3d046de0	0.032331347
85	0xba99d7c1	-0.0011737273
86	0x3d0efb2b	0.0349075
87	0xbb93aeae	-0.0045069074
88	0xbd2c85d0	-0.0421198
89	0xbcdc0ea4	-0.02686245
90	0x3c912c92	0.017721448
91	0xbc3dd8f9	-0.011587375
92	0xbcf9e625	-0.03050525
93	0xbd8ce609	-0.06879813
94	0x3c43acd9	0.011943066
95	0x3d057ac0	0.032587767
96	0xbb08c668	-0.0020870212
97	0x3c8bde71	0.017073842
98	0xbcdad69c	-0.026713662
99	0x3cdeb0dd	0.027183944
100	0xbd00b602	-0.031423576
101	0x3d55659a	0.052098848
102	0xbd6c34ca	-0.05766753
103	0x3d60f2b5	0.054918963
104	0x3d2d5fcd	0.04232769
105	0xbd6ee1d0	-0.05832082
106	0x3cfa92bb	0.030587545
107	0x3cc162c3	0.023606664
108	0x3d6399da	0.055566646
109	0x3cc59e1b	0.024123242
110	0x3d4a4917	0.04938611
111	0xbca7fb4a	-0.020505566
112	0x3c9825f1	0.01857278
113	0x3d6240b0	0.055237472
114	0xbc9c315d	-0.019066507
115	0x3d3ad9c5	0.045617837
116	0xbd302a81	-0.043009285
117	0xbd11616d	-0.035493303
118	0x3cb52634	0.022112943
119	0xbccb119e	-0.024788674
120	0x3cd83925	0.026394436
121	0xbc2f3f52	-0.010696249
122	0x3ce0ac11	0.027425798
123	0xbafec9ad	-0.0019438766
124	0x3cbbedf3	0.022940611
125	0xbd1126f2	-0.03543753
126	0x3badafbd	0.0053004907
127	0xbad0745a	-0.0015903816
128	0x3d0e1628	0.0346891
129	0xbc8390f4	-0.01606033
130	0x3ce5e92c	0.028065287
131	0x3b9b8bb7	0.00474688
132	0xbce50941	-0.027958514
133	0xbba49490	-0.005022593
134	0xbc504d5c	-0.012713756
135	0xbc4825be	-0.01221603
136	0xbd047186	-0.032334827
137	0x3d3f2e37	0.046674933
138	0x3d121db8	0.035672873
139	0xbd32686c	-0.043556616
140	0xbd6f7552	-0.058461495
141	0xbaf59fcc	-0.001873964
142	0xbcc994c1	-0.024607064
143	0xbd45fafe	-0.048335068
144	0x3c7988ee	0.0152304005
145	0xbd6512b5	-0.055926044
146	0xbd03efd5	-0.032211144
147	0xbd02323a	-0.03178618
148	0xbce03dc0	-0.027373195
149	0xbc14143d	-0.009038028
150	0x3d7c72fe	0.061633103
151	0xbd226c36	-0.03965398
152	0x3d73e73a	0.059546687
153	0x3cd5f0de	0.026115831
154	0x3d370390	0.04468113
155	0xbd71645c	-0.0589336
156	0xbcbe0b23	-0.02319867
157	0xbcf4efb4	-0.029899456
158	0x3d6c7bd9	0.057735298
159	0x3cc8656d	0.024462426
160	0x3c4b0a52	0.012392597
161	0x3c8eb05c	0.01741808
162	0xbc1a4baa	-0.009417454
163	0x3d44e5a7	0.048070576
164	0xbd52af51	-0.051436726
165	0xbc0b4b35	-0.0085018175
166	0xbb9a8d8b	-0.0047165803
167	0xbd4dc44d	-0.050236035
168	0x3ce53748	0.027980462
169	0x3d09ccfc	0.033642754
170	0x3cf32c60	0.029684246
171	0xbc176acc	-0.009241771
172	0xbc899927	-0.016796662
173	0xbc0e613c	-0.008690175
174	0x3d548128	0.051880985
175	0xbd247092	-0.040146418
176	0x3cfd25d8	0.030901834
177	0xbc24a4ef	-0.010049089
178	0x3c87bfab	0.016570887
179	0x3d02bd16	0.031918608
180	0xbd0c5138	-0.034257144
181	0x3bbca695	0.005757163
182	0xbd1a5724	-0.03768076
183	0x3cb68b6d	0.02228328
184	0x3d4a0211	0.049318377
185	0xbca4a8ef	-0.020100085
186	0x3d22fceb	0.039791983
187	0x3d99cd45	0.07509855
188	0x3cebfc9b	0.028806975
189	0x3d0552dd	0.032549728
190	0xbd2e56e6	-0.04256334
191	0x3d0ef992	0.034905978
192	0x3d3f33ba	0.04668019
193	0xbc37ff6b	-0.01123033
194	0xbda4f8bb	-0.08055254
195	0x3c293700	0.010328054
196	0xba857342	-0.0010181444
197	0x3dba50fa	0.09097476
198	0xbc630955	-0.013857205
199	0xbccf184a	-0.025280137
200	0xba029ea3	-0.0004982745
201	0xbc2344df	-0.009965151
202	0x3d6c936c	0.05775778
203	0x3d824624	0.063610345
204	0x3aec09af	0.0018008257
205	0x3ca405a9	0.02002223
206	0x3c993e65	0.01870651
207	0xbd3b1416	-0.045673452
208	0xbc2f1b5f	-0.010687678
209	0xbd97e6d7	-0.07417076
210	0xbd79f345	-0.061023016
211	0x3d1f494d	0.038888264
212	0x3d08015f	0.033204433
213	0x3d172cb1	0.036907855
214	0x3cddba4c	0.027066372
215	0xbc86e960	-0.016468704
216	0x3c9fc89d	0.01950484
217	0xbd4ab0c6	-0.04948499
218	0xbd2e2e4a	-0.042524613
219	0x3d982729	0.07429344
220	0x3d62c787	0.055366065
221	0xbcadc922	-0.021214072
222	0x3d0e4975	0.034738023
223	0x38a35506	7.7882825e-05
224	0x3c9e3480	0.019312143
225	0x3d509f06	0.050932907
226	0x3d24943b	0.040180426
227	0xbcfe5e2a	-0.03105076
228	0x3c921f8a	0.017837305
229	0x3c8bb24c	0.017052792
230	0x3b2909e4	0.0025793249
231	0x3cb0b361	0.02156991
232	0xbd3db5fa	-0.046316124
233	0xbd10ee86	-0.035383724
234	0xbd806fb6	-0.06271307
235	0x3cc70458	0.024294063
236	0xbcda44f6	-0.026644211
237	0xbb97723a	-0.004621771
238	0x3d99492e	0.07484661
239	0x3cbc06d6	0.022952478
240	0xbcf4a273	-0.029862618
241	0x3d0e7226	0.03477683
242	0xbcd84048	-0.02639784
243	0xbbf87105	-0.0075818324
244	0x3c5fa066	0.013649082
245	0x3bbfd3a8	0.005854089
246	0xbcf799fb	-0.03022479
247	0xbd648974	-0.055795148
248	0x3b8bcbbe	0.0042662313
249	0x3c6e8908	0.014559038
250	0x3bb937b1	0.005652391
251	0x3c0cd664	0.008596037
252	0xbc7b3c5f	-0.015334218
253	0x3cb1a0fc	0.021683209
254	0xbcadf020	-0.021232665
255	0xbc99e0a6	-0.018783879

lstm.bias_ih_l1 f4 [512]
0	0x3d38bf72	0.04510445
1	0x3ceff44b	0.029291293
2	0x3c444780	0.011979938
3	0x3d4e6ce2	0.050396807
4	0x3d981ec2	0.074277416
5	0x3daee321	0.08539415
6	0xbb126aea	-0.0022341558
7	0xbd2f729f	-0.04283392
8	0xbd671026	-0.056411885
9	0x3daf00ba	0.085450605
10	0xbd90e744	-0.070753604
11	0xbd7f7c93	-0.062374663
12	0xbcae7218	-0.021294639
13	0x3dac5aba	0.08415742
14	0x3d796ae6	0.060892962
15	0x3d9fac63	0.07796552
16	0x3be63ec2	0.0070265243
17	0xbd7b9317	-0.061419573
18	0x3cebc4cb	0.028780362
19	0x3dae3e8b	0.08508023
20	0x3d75c47c	0.060001835
21	0x397491cc	0.00023323967
22	0x3cd8e9fc	0.02647876
23	0x3b5f49da	0.0034071119
24	0xbc30c7ac	-0.010789793
25	0x3dca0cf3	0.09865751
26	0xbc647629	-0.013944187
27	0x3d081313	0.033221316
28	0x3d894cd7	0.06704109
29	0xbc099ee8	-0.008399703
30	0x3d1ca021	0.03823865
31	0xbadbdb92	-0.0016773811
32	0xbcf052b4	-0.02933631
33	0x3dbf6177	0.09344762
34	0xbd354565	-0.044255633
35	0xbcaa50be	-0.020790454
36	0x3d40d2c8	0.047076017
37	0x3d20c0e2	0.039246447
38	0x3dd3eced	0.103479244
39	0x3dc13572	0.09434022
40	0x3cd4106a	0.025886733
41	0x3d8acb21	0.06777025
42	0x3d215328	0.039385945
43	0x3d188353	0.037234616
44	0xbd2bedae	-0.041974716
45	0x3d336cbc	0.04380487
46	0xbc8e4de6	-0.01737113
47	0x3cdb8987	0.026798977
48	0x3d0135b1	0.031545345
49	0x3d291b90	0.04128605
50	0x3b7c55f7	0.0038503387
51	0x3d895587	0.06705766
52	0xbd451d4c	-0.048123643
53	0x3d2b1f5b	0.04177795
54	0xbc0bc648	-0.008531161
55	0x3d494bb0	0.049144447
56	0x3d496fa3	0.04917873
57	0x3d16a1db	0.03677545
58	0x3d985d13	0.074396275
59	0xbd18f770	-0.03734535
60	0xbc8ec4ab	-0.017427763
61	0x3d9ce74c	0.07661304
62	0x3d8a452b	0.06751474
63	0x3c0cbe46	0.008590287
64	0x3d28c8db	0.041207176
65	0x3c8dbbf4	0.017301537
66	0x3bb1d22f	0.005426667
67	0x3d8b263b	0.06794401
68	0xbcfe2791	-0.031024726
69	0x3d0d5952	0.03450901
70	0xbabe7cfa	-0.0014533096
71	0xb998abb4	-0.00029119628
72	0x3cc5ca30	0.024144262
73	0xbd11a5cd	-0.03555851
74	0x3ddf227e	0.10895251
75	0x3d8ad2ce	0.06778489
76	0x3d482806	0.048866294
77	0x3d3d2e64	0.04618682
78	0x3caa1798	0.020763204
79	0xbcc175f6	-0.023615818
80	0x3d2113f3	0.039325666
81	0x3ce54052	0.027984772
82	0x3dc1faf9	0.09471697
83	0x3d2c9538	0.042134494
84	0x3cb709da	0.022343565
85	0x3dfb33ed	0.122657634
86	0x3bc0dd7a	0.005885777
87	0x3d9baf33	0.07601776
88	0x3de476f9	0.11155505
89	0x3da0cb89	0.07851321
90	0xbd02de10	-0.031950057
91	0x3c6000b9	0.013672047
92	0x3aeb1b3a	0.0017937191
93	0x3d420af0	0.047373712
94	0x3ce3123b	0.027718654
95	0x3d3e1ed5	0.046416122
96	0x3d889634	0.06669274
97	0x3d95e83b	0.07319685
98	0xbc0a0feb	-0.008426647
99	0x3cc62fab	0.024192652
100	0xbcf7a81b	-0.030231526
101	0x3d91d7b7	0.071212225
102	0x3c02b6a9	0.00797812
103	0x3c9d3c33	0.019193744
104	0x3dbc0121	0.09179903
105	0xbd243d81	-0.040097717
106	0x3d659ca7	0.0560576
107	0x3d85558d	0.06510458
108	0x3c0048fb	0.0078299
109	0x3dc0caa0	0.09413648
110	0x3d554909	0.052071605
111	0x3d98f99a	0.07469483
112	0x3db844a6	0.08997469
113	0x3d93a837	0.07209819
114	0x3d3ed93e	0.046593897
115	0x3d155f2c	0.036467716
116	0x3c604326	0.013687884
117	0x3d490c8f	0.049084242
118	0x3d167db1	0.036740962
119	0xbca040c9	-0.019562142
120	0x3d40dc94	0.04708536
121	0xbd238cf2	-0.039929338
122	0xbc322bb0	-0.010874674
123	0x3d5f024f	0.05444556
124	0x3d5d6259	0.05404887
125	0x3dae5404	0.085121185
126	0x3d042cd3	0.03226931
127	0x3c171e87	0.009223587
128	0x3d2f8c75	0.04285856
129	0x3ddcd667	0.107830815
130	0x3dabc420	0.08387017
131	0x3d7508f3	0.059822988
132	0x3c71bbda	0.01475426
133	0x394ece30	0.00019722502
134	0x3d7d512e	0.061844997
135	0xbd0ba48e	-0.03409248
136	0x3db66d57	0.08907574
137	0xbd29af2f	-0.041426834
138	0x3b9165e0	0.0044371933
139	0x3d10315a	0.035203315
140	0x3d18791a	0.037224866
141	0x3d43813b	0.047730666
142	0x3da765ad	0.0817369
143	0xbcd58226	-0.026063036
144	0x3d4f31f8	0.050584763
145	0xbd1d1666	-0.03835144
146	0x3d213f6c	0.039367124
147	0xbcf91d3a	-0.030409444
148	0xbc84a127	-0.016190125
149	0x3d7039c7	0.05864885
150	0x3d7730bc	0.06034921
151	0x3d8d0edc	0.068876
152	0xbd73bf00	-0.059508324
153	0x3d58b461	0.052906398
154	0x3c12ab71	0.008952008
155	0xbcb5a7af	-0.022174684
156	0x3d96422b	0.07336839
157	0x3af33ef3	0.0018558189
158	0xbd40cfd4	-0.0470732
159	0xbbc7c7cb	-0.006096815
160	0x3d43f9b2	0.04784555
161	0x3cd90cdf	0.026495395
162	0x3b801fcf	0.003910042
163	0x3d8fcd4d	0.0702158
164	0x3d2e5f01	0.04257107
165	0x3d9450e2	0.0724199
166	0xbceeee8e	-0.029166486
167	0x3da73163	0.08163717
168	0x3c7fc0e3	0.015609953
169	0xbc937d62	-0.018004123
170	0x3d04ef29	0.032454643
171	0x3d880195	0.06640927
172	0x3d83dd15	0.064386524
173	0x3d4536cd	0.048147965
174	0x3c6cb022	0.01444629
175	0x3c16c66a	0.009202579
176	0xbd05de20	-0.032682538
177	0x3d6683f6	0.05627819
178	0x3c6362e4	0.013878558
179	0x3d57fcb9	0.05273125
180	0x3d6d3e96	0.057921015
181	0x3dc1ba30	0.094593406
182	0x3be5ccc6	0.0070129363
183	0x3d6cba72	0.057794996
184	0x3c1f41d0	0.009720281
185	0x3d98f83e	0.074692234
186	0x3e00786b	0.12545936
187	0xbd3e6fc4	-0.046493307
188	0x3ccd8bb1	0.025091024
189	0xbd09af6c	-0.03361456
190	0x3ca9b38a	0.020715494
191	0xbd750875	-0.05982252
192	0x3dd8a04c	0.10577449
193	0xbd28960d	-0.041158725
194	0xbc1023ae	-0.008797569
195	0x3dda6173	0.10663118
196	0x3dda0878	0.106461465
197	0x3dc49014	0.09597793
198	0x3dc86e6c	0.09786686
199	0xbb0f2130	-0.002183985
200	0x3d39bbe0	0.045345187
201	0x3c9e9cd7	0.019361896
202	0x3d9e418c	0.07727346
203	0x3d7e92f7	0.062151875
204	0x3cca297f	0.02467799
205	0x3d311d32	0.043240733
206	0x3c985ff6	0.018600445
207	0x3cac3a9f	0.021024046
208	0x3bd18db3	0.0063950657
209	0x3c6ddd63	0.014518115
210	0x3d7fa364	0.06241168
211	0x3d81eaa0	0.06343579
212	0xbc16c071	-0.009201155
213	0x3c0705bb	0.008241112
214	0x3cd46266	0.025925826
215	0x3d8ed7df	0.06974768
216	0x3da4341f	0.08017754
217	0x3c86d11f	0.016457139
218	0x3d713cc5	0.058895845
219	0x3d85db4b	0.065359674
220	0x3d719f2d	0.058989692
221	0xba807ab4	-0.0009802193
222	0xb9f47db1	-0.00046632954
223	0x3dad4471	0.0846032
224	0xbc59fc1b	-0.0133047355
225	0x3cd3f636	0.025874238
226	0x3bd5fa9f	0.0065301205
227	0xbd096bf9	-0.033550236
228	0xbd5a4b9d	-0.053294767
229	0xbc1073fd	-0.008816716
230	0x3db13a29	0.08653671
231	0x3dc78e18	0.09743899
232	0xbc6e3300	-0.014538527
233	0x3d697fb3	0.05700655
234	0x3debe8c6	0.115190074
235	0xbd3d343f	-0.046192404
236	0x3db79b51	0.08965171
237	0x3d3eda77	0.046595063
238	0x3dd7f220	0.105442286
239	0x3c73676e	0.0148562025
240	0x3dab253a	0.0835671
241	0xbbe25fa9	-0.0069083762
242	0x3c3136be	0.010816274
243	0x3ce4e55a	0.027941395
244	0x3cd0c060	0.025482357
245	0x3d01dcc4	0.03170468
246	0x3d85586a	0.06511004
247	0x3d8605d1	0.06544078
248	0x3d33fc9f	0.04394209
249	0xbd172564	-0.036900893
250	0x3df3a0c2	0.118958965
251	0x3df364d1	0.118844636
252	0x3cb2948f	0.021799354
253	0xbc80fbf0	-0.015745133
254	0x3dc95473	0.098305605
255	0x3d85ea4e	0.06538831
